Week_02/example_ONNX/lebbeus.onnx (onnx, 443727 bytes, 64 tensors)

141 f4 [4]
0	0x3f800000	1.0
1	0x3f800000	1.0
2	0x40000000	2.0
3	0x40000000	2.0

142 f4 [4]
0	0x3f800000	1.0
1	0x3f800000	1.0
2	0x40000000	2.0
3	0x40000000	2.0

conv1.conv2d.bias f4 [8]
0	0x3d266c2e	0.040630512
1	0xbdf7ab68	-0.1209324
2	0x3e1876f2	0.14889124
3	0xbdbed1c2	-0.09317352
4	0x3e18d090	0.1492331
5	0xbd28f758	-0.04125151
6	0x3d3df449	0.046375547
7	0xbe375f16	-0.17907366

conv1.conv2d.weight f4 [8, 3, 9, 9]
0	0xbd6b4b7a	-0.057445027
1	0x3d04cbd7	0.03242096
2	0xbcd49872	-0.025951598
3	0xbe073693	-0.13204412
4	0xbc47bb3a	-0.012190634
5	0x3d41fa9a	0.047358133
6	0xbc7a32f8	-0.015270941
7	0xbe2c17b7	-0.16805921
8	0x3c3ee775	0.011651863
9	0xbd60191f	-0.054711457
10	0x3b545d5a	0.0032404275
11	0xbd85e1db	-0.06537219
12	0x3d92e5f3	0.071727656
13	0x3e251ef4	0.16125089
14	0x3ebafbc4	0.36520207
15	0x3dd8c5e4	0.1058462
16	0x3d818ee1	0.0632608
17	0xbe17ce21	-0.14824726
18	0xbd82881b	-0.06373616
19	0x3db32a4c	0.08748302
20	0xbe430dca	-0.19048229
21	0x3ce6fc6a	0.028196532
22	0x3d930651	0.07178939
23	0x3ef41f33	0.47680053
24	0xbecb93be	-0.39761156
25	0xbe993c51	-0.2992883
26	0x3cb6d614	0.022318877
27	0xbdda644f	-0.106636636
28	0x3d36e20c	0.04464917
29	0xbcea18e9	-0.028576331
30	0xbcf00eec	-0.02930399
31	0x3d716b92	0.058940478
32	0x3f720cd6	0.94550836
33	0xbee8b2cc	-0.4544891
34	0xbf37cec0	-0.7179985
35	0xbdc0d5e2	-0.09415795
36	0x3d9fead5	0.078084625
37	0x3e2f7dd6	0.17137846
38	0x3e37785e	0.1791701
39	0x3ea3efd3	0.3201891
40	0x3e70f074	0.23529226
41	0x3f888f66	1.0668762
42	0x3d8971ad	0.06711135
43	0xbef49dff	-0.4777679
44	0xbe8593a3	-0.260892
45	0xbe487f76	-0.19579872
46	0x3c626119	0.013817095
47	0xbdcd66b1	-0.100293525
48	0xbe41f892	-0.18942478
49	0x3d55f556	0.052235924
50	0x3f5c8a96	0.86148965
51	0x3e2377e4	0.15963703
52	0xbe7eda08	-0.2488786
53	0xbeb55d95	-0.3542296
54	0xbe4093e0	-0.1880641
55	0x3dbe2ca5	0.09285859
56	0x3e2df9aa	0.1698977
57	0xbd993062	-0.074799314
58	0x3e435c20	0.19078112
59	0x3f02ea46	0.5113872
60	0xbdc82c5b	-0.09774085
61	0xbe3732b9	-0.17890443
62	0xbe3faa7e	-0.18717381
63	0xbdb243e4	-0.08704355
64	0x3de0edca	0.10982855
65	0x3d953351	0.072851785
66	0xbe0caacd	-0.1373703
67	0x3db36aa5	0.08760575
68	0x3e051bbb	0.1299886
69	0xbe582450	-0.21107602
70	0xbe2b6cdf	-0.1674075
71	0x3d5ee06e	0.05441325
72	0xbd944256	-0.07239215
73	0x3d38171f	0.044943925
74	0x3c066c04	0.008204464
75	0xbe149f4a	-0.14513889
76	0x3ddd655c	0.108103484
77	0x3da53c46	0.08068137
78	0xbe80085c	-0.25006378
79	0xbe662fb2	-0.22479132
80	0xbc0db2ba	-0.008648569
81	0xbd37bbbb	-0.044856768
82	0x3dfef8bc	0.12449786
83	0xbc7bd6eb	-0.015371065
84	0xbdc8d415	-0.098060764
85	0xbc8ef107	-0.017448915
86	0x3d344cc9	0.04401854
87	0x3db866d7	0.0900399
88	0xbd7ca6ec	-0.061682627
89	0xbb307e78	-0.002693085
90	0xbd82c737	-0.063856535
91	0x3db7fed5	0.08984152
92	0x3d99af29	0.07504112
93	0x3df44a75	0.11928264
94	0x3ddd3cdd	0.108026244
95	0x3e4a1058	0.19732797
96	0x3d94e2c1	0.072698124
97	0x3e14938f	0.14509414
98	0x3d8b27d4	0.06794706
99	0xbd5ec874	-0.054390386
100	0x3b2295c1	0.0024808499
101	0xbdc7eebe	-0.09762333
102	0xbcdc1ef9	-0.026870238
103	0xbdb41c75	-0.0879449
104	0x3ea9a515	0.3313376
105	0xbf1eabeb	-0.61981076
106	0xbe9578a7	-0.29193613
107	0x3d0a2cc5	0.0337341
108	0x3b14f9c0	0.002273187
109	0x3db481e8	0.0881384
110	0xbe24f96a	-0.16110769
111	0xbd18f350	-0.037341416
112	0xbe484ac8	-0.19559777
113	0x3f4d3149	0.8015333
114	0xbf3d06bc	-0.738384
115	0xbf608177	-0.8769755
116	0xbe8cd567	-0.27506563
117	0x3e181d4f	0.1485493
118	0x3c807e91	0.015685352
119	0x3d0dc3ea	0.034610666
120	0x3e8a9d1d	0.27072993
121	0x3ded9084	0.1159983
122	0x3f7d36b5	0.989116
123	0x3bec2091	0.0072060307
124	0xbf365f2e	-0.7123898
125	0xbec96aed	-0.3933939
126	0xbc64b700	-0.013959646
127	0xbe2846cd	-0.16433258
128	0xbe92c6e6	-0.28667372
129	0xbe80dff9	-0.25170878
130	0xbdd889c9	-0.105731554
131	0x3f64d1ec	0.89382815
132	0x3e6d50a4	0.23175293
133	0xbe993c02	-0.29928595
134	0xbef7a9d5	-0.4837176
135	0x3d9dca91	0.07704652
136	0x3be22a04	0.0069019813
137	0xbd3424d0	-0.04398042
138	0xbd5a8f92	-0.053359576
139	0x3e521653	0.20516329
140	0x3f166bf6	0.58758485
141	0xbcb87366	-0.022515964
142	0xbe3f635a	-0.18690243
143	0xbdfa23ed	-0.122138835
144	0x3e3d4eb6	0.18487057
145	0xbbd1c311	-0.0064014276
146	0xbca2fb33	-0.019895172
147	0xbd899bcc	-0.06719169
148	0x3e1e119e	0.15436408
149	0x3e25972e	0.16170952
150	0xbe3ba6ac	-0.18325299
151	0xbdecde6c	-0.11565861
152	0x3dd5c0db	0.10437175
153	0x3e1f8e83	0.15581708
154	0x3ce8cc4a	0.028417725
155	0xbd8711a6	-0.06595163
156	0xbce70b3a	-0.028203595
157	0x3d404c06	0.0469475
158	0xbdae7cc5	-0.08519892
159	0xbe828b9a	-0.25497133
160	0xbdac2cb0	-0.08406961
161	0x3e30de9b	0.17272417
162	0x3cfcb886	0.030849706
163	0xbcad8d73	-0.021185612
164	0xbddf5e48	-0.109066546
165	0xbe7797bd	-0.24178977
166	0xbe01a355	-0.12659962
167	0xbd7b4c67	-0.06135216
168	0x3d47ca57	0.04877695
169	0xbdb36946	-0.08760314
170	0x3ce740bb	0.028229108
171	0xbd0e69fc	-0.034769043
172	0x3c01d725	0.00792483
173	0x3c6426e0	0.013925284
174	0x3d33e3d2	0.04391844
175	0x3d003182	0.031297214
176	0x3e18b451	0.14912535
177	0x3e60c962	0.21951821
178	0x3e5da165	0.21643598
179	0x3dd24b76	0.10268299
180	0x3d37df00	0.044890404
181	0x3b924f7b	0.004465041
182	0xbda0d140	-0.07852411
183	0xbc78e927	-0.015192307
184	0xbe34cdc7	-0.17656623
185	0x3d8bdb9d	0.06828997
186	0xbedaaee7	-0.42711565
187	0xbe0bc3dc	-0.13648933
188	0x3ce0b3c0	0.027429461
189	0x3d8b5490	0.068032384
190	0x3e62f02d	0.22161932
191	0x3b9dcf20	0.004815951
192	0xbd0a63f9	-0.033786748
193	0xbdac18be	-0.08403157
194	0x3f22bb03	0.6356661
195	0xbeabccb2	-0.33554608
196	0xbf07e048	-0.530766
197	0xbe259506	-0.16170129
198	0x3cbe49d3	0.023228562
199	0x3e0091c4	0.12555605
200	0x3d5abf8b	0.053405326
201	0x3e85e4bd	0.26151076
202	0x3e340919	0.17581595
203	0x3f7caa54	0.986974
204	0x3e8aeb50	0.27132654
205	0xbe920309	-0.2851794
206	0xbea8766b	-0.32902846
207	0xbe3b8111	-0.18310954
208	0xbdc3255f	-0.09528612
209	0xbe81dbf7	-0.25363132
210	0xbe5371f3	-0.20648937
211	0x3d3081ed	0.043092657
212	0x3f59a313	0.85014457
213	0x3e8c62f4	0.27419245
214	0xbe44eda4	-0.19231278
215	0xbefbdad0	-0.49190378
216	0xbe06c629	-0.1316153
217	0xbc814acf	-0.015782742
218	0x3bd6bb13	0.0065530627
219	0xbd3725b8	-0.044713706
220	0x3e5c35a7	0.21504842
221	0x3f1699fc	0.5882871
222	0x3e0c1f22	0.13683751
223	0xbdbd5a3a	-0.09245725
224	0xbe96b762	-0.29436785
225	0xbd512e67	-0.051069643
226	0x3d98de82	0.07464315
227	0x3cc61899	0.024181651
228	0xbddba69e	-0.10725139
229	0x3dd47dd3	0.103755616
230	0x3e5a8a72	0.21341875
231	0xbe005b38	-0.12534797
232	0xbd246850	-0.040138543
233	0xbd6188e3	-0.055062186
234	0xbd90f7de	-0.07078527
235	0x3de8b119	0.11361904
236	0xbc5d31f4	-0.013500679
237	0xbe38f7f1	-0.18063332
238	0x3c0b6f15	0.008510371
239	0xbe1195b4	-0.14217263
240	0xbe580e37	-0.21099173
241	0xbe098911	-0.13431193
242	0x3d9192b0	0.071080565
243	0x3ce7af17	0.028281732
244	0x3e655a62	0.2239776
245	0xbd3cbab2	-0.046076484
246	0x3e3d23d6	0.18470702
247	0xba33ced8	-0.000685913
248	0x3dd7db55	0.10539881
249	0x3e1d96c1	0.1538954
250	0x3dc9eff0	0.098602176
251	0x3e3ff977	0.18747507
252	0x3df0ab55	0.11751429
253	0x3e1c8f5f	0.15289067
254	0xbe8339bf	-0.25629994
255	0xbdee6f37	-0.11642306

conv2.conv2d.bias f4 [16]
0	0xbe67af9d	-0.22625585
1	0xbd15a551	-0.03653461
2	0x3f05d195	0.5227292
3	0x3d2cfba1	0.04223216
4	0x3e97139a	0.29507142
5	0xbe027d92	-0.12743214
6	0xbe42d4d5	-0.19026501
7	0xbe55e20f	-0.20887016
8	0xbe7820df	-0.2423129
9	0x3e8875f6	0.26652497
10	0x3eea307c	0.45740116
11	0xbe34e5ee	-0.17665836
12	0x3e0a61d9	0.13513888
13	0x3dd546ea	0.104139164
14	0x3ed5d568	0.4176438
15	0xbdc4af73	-0.09603777

conv2.conv2d.weight f4 [16, 8, 3, 3]
0	0x3e374fda	0.17901555
1	0x3e3fd097	0.18731914
2	0x3e1757aa	0.14779535
3	0x3c8984e7	0.016787006
4	0x3cb96a0b	0.022633573
5	0xbd01507f	-0.031570908
6	0xbe99dabd	-0.30049697
7	0xbea54899	-0.3228195
8	0x3d4a2529	0.049351845
9	0xbd3cc221	-0.046083573
10	0xbe833885	-0.25629058
11	0xbe0b86de	-0.13625666
12	0xbe863c3e	-0.26217836
13	0xbe666973	-0.22501163
14	0x3d0d0ca3	0.03443588
15	0x3e6d5dee	0.23180363
16	0x3ec41c3c	0.3830279
17	0x3e96928d	0.29408684
18	0xbc8b0506	-0.016970169
19	0xbe2b1550	-0.16707349
20	0xbd63b91e	-0.055596463
21	0x3cc43c34	0.023954488
22	0x3e41abe2	0.18913224
23	0xbd2416fe	-0.04006099
24	0xbb772fab	-0.0037717621
25	0x3d0f4128	0.034974247
26	0x3d28a995	0.04117735
27	0x3d9d21d6	0.07672469
28	0x3ed2a0a6	0.4113819
29	0x3eaa2a42	0.33235365
30	0x3f0869d2	0.5328647
31	0x3f19f7a4	0.60143495
32	0x3e8df47a	0.27725583
33	0xbf10883f	-0.56457895
34	0xbf849077	-1.0356587
35	0xbf0bcab3	-0.5460617
36	0x3e31299b	0.17301027
37	0x3e22bb35	0.15891726
38	0x3dc3e0f9	0.095643945
39	0xbe0caab8	-0.13736999
40	0xbed1f380	-0.41006088
41	0xbe15df69	-0.14636005
42	0x3dd71aca	0.105031565
43	0x3dff8e43	0.12478306
44	0x3e01eac9	0.1268722
45	0x3e3565d7	0.1771463
46	0x3e775300	0.24152756
47	0x3cc3b38e	0.02388933
48	0xbf07fe60	-0.5312252
49	0xbf310fe4	-0.6916487
50	0xbf065cde	-0.52485454
51	0x3e18062f	0.14846109
52	0x3e6b2012	0.22961453
53	0x3ead8423	0.33889875
54	0x3dcadc53	0.09905305
55	0xbd7e333b	-0.062060576
56	0x3e2d6102	0.16931537
57	0x3dc5e7d7	0.096633606
58	0xbd2c0797	-0.041999426
59	0xbea19ca6	-0.31564826
60	0xbd21d6ae	-0.039511375
61	0x3c95f07f	0.018303154
62	0x3e342d67	0.17595445
63	0x3da9f6d5	0.082990326
64	0x3e9117e9	0.28338555
65	0x3eb1d153	0.34730014
66	0x3d914caf	0.07094704
67	0xbf3f7c02	-0.74798596
68	0xbf382402	-0.71929944
69	0xbd93c4b3	-0.07215252
70	0x3e1b3b91	0.15159442
71	0x3e854663	0.26030263
72	0x3ec0146b	0.37515578
73	0xbeba3dd9	-0.3637531
74	0xbed0a578	-0.40751243
75	0x3d742e0e	0.059614234
76	0xbe7b8ca9	-0.24565376
77	0xbdf12922	-0.117754236
78	0x3d8d2791	0.06892312
79	0xbe80fb10	-0.25191545
80	0x3e61da0d	0.22055836
81	0x3f54dda3	0.8315069
82	0x3ed8ccff	0.423439
83	0xbdc3656e	-0.095408306
84	0x3cb4618c	0.02201917
85	0xbef96fc1	-0.48718074
86	0xbf63e3ad	-0.8901928
87	0xbd9f76ba	-0.07786317
88	0xbf0b05e7	-0.5430588
89	0xbf064632	-0.5245086
90	0xbdc3c6f8	-0.09559435
91	0xbea3d66b	-0.31999525
92	0xbdd10ae7	-0.102071576
93	0x3dd822ce	0.105535135
94	0xbe6f1dd4	-0.23351222
95	0x3a9aa44d	0.0011798233
96	0x3e84355e	0.25821966
97	0xbc249c6e	-0.010047061
98	0x3c3f6003	0.011680606
99	0xbe46ba9a	-0.1940712
100	0xbebeba34	-0.37251437
101	0xbde64498	-0.11243552
102	0x3de46c6d	0.11153493
103	0x3e8bccb0	0.27304602
104	0x3de82453	0.11335053
105	0x3dcb8afc	0.099386185
106	0x3e35531d	0.17707486
107	0x3ea49d6e	0.3215136
108	0xbde9a27a	-0.11407943
109	0x3e9b8417	0.30374214
110	0x3e9e3cce	0.30905765
111	0x3d1e99e7	0.03872099
112	0x3de12f14	0.109953076
113	0x3e2cb150	0.16864514
114	0xbd85fe5a	-0.06542654
115	0xbee0a107	-0.43872854
116	0xbe480e1f	-0.19536637
117	0x3e5d041b	0.21583597
118	0x3e72d90b	0.23715608
119	0x3f4ca6d1	0.7994204
120	0x3e800e81	0.25011066
121	0x3e6d5b12	0.23179272
122	0x3f080655	0.5313466
123	0xbf37a879	-0.71741444
124	0xbf1fe297	-0.62455124
125	0xbebaaa6b	-0.36458144
126	0x3dae58fd	0.08513067
127	0xbe84dbed	-0.2594904
128	0x3cede452	0.029039536
129	0xbdcc7e60	-0.099850416
130	0xbe0c02f7	-0.13673006
131	0xbd5b56ac	-0.053549454
132	0x3e2e7632	0.17037275
133	0xbc8146f7	-0.015780909
134	0xbd268855	-0.04065736
135	0xbdb18deb	-0.08669647
136	0x3ec18fcb	0.37805018
137	0xbd693d0b	-0.05694298
138	0x3e83c308	0.25734735
139	0xbe05e269	-0.1307465
140	0xbebc4c77	-0.36777088
141	0xbe8034ca	-0.25040275
142	0x3ee05a7a	0.43819028
143	0xbe0a84ab	-0.13527171
144	0x3aa87a9f	0.0012853927
145	0x3c9d5a28	0.019208029
146	0xbd83774a	-0.06419237
147	0xbe857fe5	-0.26074138
148	0xbe4bc7f0	-0.19900489
149	0xbed678b8	-0.41888976
150	0xbe1a8c13	-0.15092497
151	0x3db499fb	0.08818432
152	0x3e18d24d	0.14923973
153	0xbecbfefd	-0.39842978
154	0x3cfc56cf	0.030803112
155	0x3d88a390	0.06671822
156	0x3e363b0f	0.17795967
157	0x3f0f7a5a	0.5604607
158	0x3ef9dd6c	0.48801744
159	0x3e38a87f	0.18033026
160	0x3eab901f	0.33508393
161	0x3f2c5bf0	0.67327785
162	0xbec5cc0c	-0.38632238
163	0xbed4ec1c	-0.41586387
164	0xbcac4eda	-0.021033693
165	0xbeb8182b	-0.3595594
166	0xbe835623	-0.25651655
167	0x3dbd42b6	0.0924124
168	0xbce635cb	-0.028101822
169	0x3e1fea19	0.15616645
170	0x3f0d7462	0.5525571
171	0xbd5e6ba3	-0.05430187
172	0x3d36b50f	0.044606265
173	0x3d2fec7c	0.04295014
174	0xbdc8613d	-0.09784172
175	0xbceaa6c8	-0.02864398
176	0x3e1650e2	0.14679292
177	0x3d21a541	0.03946424
178	0x3d9e4398	0.07727736
179	0x3d91556e	0.070963725
180	0xbe48f7ca	-0.19625774
181	0xbe8546c9	-0.26030567
182	0xbe64f424	-0.22358757
183	0x3daee9e1	0.085407026
184	0xbc874f1c	-0.016517214
185	0xbe49d2da	-0.1970934
186	0x3f165390	0.58721256
187	0x3ef1ad28	0.4720242
188	0x3da04dac	0.07827315
189	0x3e99d132	0.30042416
190	0x3e57060c	0.209984
191	0xbe22a11a	-0.15881768
192	0x3cd90ae8	0.026494458
193	0xbd7941f0	-0.0608539
194	0xbeb54e53	-0.3541132
195	0x3d488a90	0.04896027
196	0xbda8f993	-0.082507275
197	0x3c08014e	0.008301092
198	0xbe444ca9	-0.19169869
199	0xbf0602d9	-0.52348095
200	0xbf24ebf8	-0.6442256
201	0x3e198d0c	0.14995211
202	0xbe03d3b9	-0.12873735
203	0xbe51c7b8	-0.20486343
204	0x3eb81f76	0.35961503
205	0x3f171afe	0.5902556
206	0x3e974747	0.29546568
207	0x3ee3cf63	0.4449416
208	0x3e541ae1	0.20713378
209	0x3ece34a0	0.40274525
210	0xbcc5b8e9	-0.024136024
211	0x3ed0db71	0.4079242
212	0x3e88e071	0.26733735
213	0xbeac6048	-0.33667207
214	0xbf0576c1	-0.5213433
215	0xbed2f90f	-0.41205642
216	0xbe018c42	-0.1265116
217	0xbf1a5894	-0.6029141
218	0x3f24c21a	0.64358675
219	0xbcbb0dca	-0.022833724
220	0xbf1df569	-0.6170259
221	0x3f1144e8	0.5674577
222	0x3df91e2c	0.12163958
223	0xbf529b4c	-0.82268214
224	0x3ee529f1	0.4475856
225	0x3e1eaaa5	0.15494783
226	0xbe7ff021	-0.24993946
227	0xbda20e82	-0.079129234
228	0xbd13f296	-0.03612002
229	0x3d95754f	0.072977655
230	0xbd444e6e	-0.04792636
231	0xbb99d290	-0.0046942905
232	0xbd1e3eac	-0.038633987
233	0x3e14584e	0.1448681
234	0xbd6097bf	-0.054832216
235	0xbcef0445	-0.02917684
236	0x3e1138f8	0.14181888
237	0xbe147f53	-0.14501695
238	0xbc49c7e6	-0.012315726
239	0x3d4959df	0.049157973
240	0xbd30aaf1	-0.043131772
241	0x3dbccf85	0.09219269
242	0x3e02aa7e	0.1276035
243	0xbea89aa1	-0.32930472
244	0x3d956bd5	0.07295958
245	0x3e9ff5ef	0.3124232
246	0xbee430e2	-0.44568545
247	0x3e9aaa0c	0.3020786
248	0x3e5bef4b	0.21478002
249	0xbefd1886	-0.49432772
250	0x3dfac12e	0.12243877
251	0x3e8f9c03	0.28048715
252	0x3e043eb8	0.1291455
253	0xbea6a7f4	-0.32550013
254	0x3e211446	0.1573039
255	0x3e194780	0.14968681

conv3.conv2d.bias f4 [32]
0	0x3e99aa22	0.30012614
1	0xbe0ef665	-0.1396118
2	0xbddc41a5	-0.10754708
3	0xbb5aa0d1	-0.0033360014
4	0xbe1621f9	-0.14661397
5	0x3f0537e2	0.52038395
6	0x3ecb6350	0.39724207
7	0x3ea4414f	0.32081077
8	0x3ea70568	0.32621312
9	0xbd6046d4	-0.054755047
10	0x3de42810	0.11140454
11	0xbe12e536	-0.1434525
12	0xbe8cde8c	-0.2751354
13	0x3e3335b5	0.17500956
14	0xbec08f67	-0.37609407
15	0xbe53e8b1	-0.20694233
16	0xbe7187e1	-0.2358699
17	0xbe8ba150	-0.2727151
18	0x3ed56c02	0.41683966
19	0x3d9518f6	0.072801515
20	0xbeed89d9	-0.46394232
21	0x3f05ca04	0.52261376
22	0xbeb403d2	-0.35159165
23	0xbcea7ace	-0.028623011
24	0xbdbfb79a	-0.09361191
25	0x3f0a3fde	0.54003704
26	0x3d9806ec	0.07423195
27	0x3db81d61	0.089899786
28	0x3e4d2e56	0.20037207
29	0xbe412119	-0.18860282
30	0x3dfd7acd	0.12376938
31	0xbe9d9c03	-0.3078309

conv3.conv2d.weight f4 [32, 16, 3, 3]
0	0x3eabd310	0.33559465
1	0x3c39d2d7	0.011341772
2	0x3b918513	0.0044409125
3	0x3f07e74f	0.53087324
4	0x3c11393b	0.008863742
5	0xbeb38eaf	-0.35069796
6	0x3e7a4755	0.24441274
7	0x3da62b68	0.08113748
8	0xbe8c2561	-0.27372268
9	0x3e7b548d	0.24543972
10	0x3ed1d39c	0.40981758
11	0x3de1108b	0.109894834
12	0x3ee1719f	0.44032
13	0x3e9a6972	0.30158573
14	0xbd9b48c5	-0.07582239
15	0x3e280788	0.16409123
16	0xbdeaf578	-0.11472601
17	0x3e035699	0.12826003
18	0xbda74bfb	-0.08168789
19	0x3dedbc85	0.11608223
20	0xbd6fd5ba	-0.058553435
21	0x3ee45381	0.44594958
22	0x3ea790b4	0.32727587
23	0xbe70fb27	-0.23533307
24	0x3d4048b9	0.046944354
25	0x3f01feda	0.507795
26	0xbdc9e5c4	-0.098582774
27	0x3d80e5f8	0.06293863
28	0x3c7c2bd1	0.015391306
29	0x3db6f892	0.0893413
30	0x3e33878f	0.1753218
31	0x3e74f115	0.2392009
32	0x3e4d47b0	0.20046878
33	0x3e11bf7b	0.142332
34	0x3db0f2b4	0.08640042
35	0x3dbb1853	0.09135499
36	0xbd762234	-0.060091212
37	0xbd1ffdc0	-0.039060354
38	0x3c499de4	0.01230571
39	0xbdb4d406	-0.08829503
40	0xbd90a190	-0.070620656
41	0x3e8eba8f	0.27876708
42	0x3e039f65	0.12853773
43	0xbd6b7a1f	-0.05748951
44	0x3de5ce62	0.11221005
45	0x3ea73f03	0.32665262
46	0x3ee8fe59	0.45506552
47	0xbcb02da0	-0.02150613
48	0x3f2592fa	0.64677393
49	0x3f5ac4e6	0.85456693
50	0x3cab1935	0.020886043
51	0x3e84e35a	0.25954705
52	0x3eaf51f8	0.34242225
53	0xbe6a05a3	-0.22853713
54	0xbd746a4e	-0.059671693
55	0x3d5b3139	0.05351374
56	0x3d4f0b8d	0.050548125
57	0xbdb416c2	-0.08793403
58	0x3e0adc43	0.13560586
59	0x3e8399d1	0.2570329
60	0xbe0a2af1	-0.13492943
61	0xbd950c14	-0.07277694
62	0x3c04a319	0.008095526
63	0xbe898f5a	-0.2686718
64	0xbd8edc7a	-0.06975646
65	0x3e053047	0.13006698
66	0x3e8e9032	0.27844387
67	0x3ed4e669	0.4158204
68	0x3e06673a	0.13125315
69	0x3e51ee9b	0.20501177
70	0xbdaec8f7	-0.08534425
71	0x3de7912d	0.11306987
72	0xbe82d02e	-0.25549453
73	0xbd9d6615	-0.07685486
74	0xbd899c55	-0.06719271
75	0xbdef4f45	-0.11685041
76	0x3e1502bb	0.14551823
77	0x3cf2ccf0	0.029638737
78	0x3e33cc69	0.17558445
79	0x3e8b2df5	0.271835
80	0x3ec5abe5	0.38607708
81	0x3e7beb8b	0.24601571
82	0x3e49a302	0.19691089
83	0x3eb3dda1	0.35130027
84	0x3f361cd2	0.71137726
85	0x3f5b06ec	0.85557437
86	0x3f5b7aad	0.85734063
87	0x3e94665d	0.28984347
88	0x3efb7eac	0.4912008
89	0x3ec642e8	0.3872292
90	0xbe82f1c9	-0.25575092
91	0xbe987f4b	-0.29784617
92	0xbe66a4ce	-0.22523805
93	0xbe32a850	-0.17447019
94	0xbce7b7cb	-0.028285882
95	0x3c6f6962	0.014612528
96	0x3e39d2a5	0.18146761
97	0x3b666413	0.0035154864
98	0xbe356417	-0.17713962
99	0xbf2e0075	-0.6796945
100	0xbede1549	-0.43375614
101	0xbf12f5b0	-0.5740614
102	0xbf99a21c	-1.2002597
103	0xbfd09b36	-1.6297367
104	0xbf861b31	-1.0477048
105	0xbf01ad20	-0.5065479
106	0xbf299748	-0.6624646
107	0xbe8c44fe	-0.27396387
108	0xbdc24a4a	-0.09486826
109	0xbce47995	-0.027890006
110	0xbe1870fe	-0.14886853
111	0x3f1075ab	0.5642955
112	0x3f739fac	0.95165515
113	0x3e2e24c8	0.17006218
114	0x3e2aa7d1	0.1666558
115	0x3ed680eb	0.41895232
116	0x3e1c4a70	0.1526277
117	0x3bef7f81	0.007308901
118	0x3de5f177	0.112276964
119	0x3c8a7077	0.01689933
120	0x3e4c1c68	0.19932711
121	0x3eb0e92b	0.34552893
122	0x3e2073e3	0.15669207
123	0x3ea8a6f7	0.32939884
124	0x3dda2024	0.106506616
125	0xbc88f26f	-0.016717164
126	0x3dc1d70c	0.09464845
127	0x3e50024b	0.20313375
128	0x3e819075	0.25305524
129	0x3d6e1db8	0.05813381
130	0xbd1965b9	-0.037450526
131	0x3e0266f4	0.12734586
132	0x3f1b08de	0.60560405
133	0x3ca598df	0.020214496
134	0xbb1551a4	-0.0022784257
135	0xbdad5007	-0.0846253
136	0x3dc98ecc	0.098416895
137	0xbdd5fa80	-0.1044817
138	0xbe56acf6	-0.20964417
139	0xbe669d37	-0.2252091
140	0xbe0e945a	-0.13923779
141	0x3e7c4362	0.2463508
142	0x3ebb2e4f	0.36558768
143	0xbcbbb042	-0.022911195
144	0xbde854ab	-0.11344274
145	0x3e63c60e	0.2224352
146	0x3e31b980	0.17355919
147	0xbf3c3c1c	-0.7352922
148	0xbed02736	-0.40654916
149	0x3cf590ee	0.029976334
150	0xbe2142c6	-0.15748128
151	0xbd5ad8f1	-0.053429548
152	0x3d27f8a3	0.041008603
153	0xbe06e7b7	-0.1317433
154	0x3e9115a6	0.2833683
155	0x3e15ea5d	0.14640184
156	0xbd59201b	-0.053009134
157	0x3eff5164	0.49866784
158	0x3e0ea281	0.13929178
159	0xbe91029d	-0.28322306
160	0xbebfcf20	-0.3746271
161	0xbec0b1b7	-0.37635586
162	0xbe23d087	-0.15997516
163	0x3bc866d3	0.006115773
164	0x3dcec106	0.1009541
165	0x3e79c652	0.2439206
166	0x3ed7c7cb	0.42144617
167	0x3e8d80dd	0.27637377
168	0x3e5ff979	0.2187251
169	0x3e1abec4	0.15111834
170	0xbea3bbf2	-0.31979328
171	0xbe263cc9	-0.16234125
172	0xbe917cde	-0.2841558
173	0xbe011824	-0.12606865
174	0x3e4f3643	0.20235543
175	0x3d575da6	0.052579544
176	0x3a9a2534	0.0011760355
177	0x3d7404b4	0.059574798
178	0x3baea84a	0.00533012
179	0xbe529028	-0.20562804
180	0xbe0a645f	-0.13514851
181	0xbe8be95c	-0.27326477
182	0xbd2551c3	-0.040361177
183	0x3e0b18a8	0.13583624
184	0x3d50ba78	0.05095908
185	0x3e167944	0.14694697
186	0x3dd2b736	0.10288851
187	0x3dacb7e5	0.084335126
188	0xbe3e4cc8	-0.18583977
189	0xbeb4e734	-0.35332644
190	0xbd74fbf8	-0.05981061
191	0xbd030333	-0.031985473
192	0xbe5c316d	-0.2150323
193	0xbc4fde90	-0.01268734
194	0x3ecdeffd	0.4022216
195	0xbee66310	-0.44997454
196	0xbeba3c5a	-0.3637417
197	0xbe455cf5	-0.19273742
198	0xbeb58e6e	-0.35460228
199	0xbef9b0b7	-0.48767635
200	0xbdb58ad1	-0.08864368
201	0x3be06e2a	0.00684907
202	0xbdff1de2	-0.124568716
203	0x3d9983b5	0.07495824
204	0x3e8c14a6	0.27359504
205	0x3ee7e99d	0.4529542
206	0xbbba1e6a	-0.005679895
207	0x3cc3195f	0.023815809
208	0xbdfd1f26	-0.12359457
209	0x3eb4505d	0.35217562
210	0x3ea58b26	0.32332724
211	0x3deae3af	0.114692084
212	0xbea230d5	-0.3167788
213	0xbc1f13f8	-0.009709351
214	0xbe0560e1	-0.13025238
215	0x3a843a46	0.0010088168
216	0xbf050755	-0.5196431
217	0xbe3787c2	-0.17922881
218	0x3d39e94e	0.045388512
219	0x3e96050b	0.29300722
220	0x3f29d0bc	0.6633413
221	0x3ee10dfb	0.4395598
222	0x3f2cd096	0.67505777
223	0x3e4ef7cd	0.20211716
224	0xbd1632c0	-0.036669493
225	0xbeab0c2b	-0.3340772
226	0x3e227b2b	0.15867297
227	0xbcfff709	-0.031245725
228	0xbe8c8809	-0.27447537
229	0xbe4396c9	-0.19100489
230	0xbe4eb160	-0.2018485
231	0xbe897dae	-0.26853698
232	0xbe02da92	-0.1277869
233	0xbecf9f72	-0.40551335
234	0xbe4fad18	-0.20280874
235	0xbdea02ec	-0.114263386
236	0xbdc3dfeb	-0.09564193
237	0x3f0198ad	0.5062359
238	0x3f1aec5c	0.60516906
239	0x3f3e1b4a	0.7426039
240	0x3ef6e659	0.48222616
241	0x3ed07448	0.40713716
242	0xbde33bbf	-0.1109538
243	0xbe9c6d1d	-0.30551997
244	0xbef1d6db	-0.47234234
245	0xbefecf0d	-0.49767342
246	0xbf264a28	-0.64956903
247	0xbf7a6075	-0.9780343
248	0xbe3edba8	-0.1863848
249	0xbdacc5bd	-0.08436153
250	0x3e8391f5	0.25697294
251	0x3ea07a7e	0.31343454
252	0xbe2f947a	-0.17146483
253	0x3e675943	0.22592644
254	0xbca918fb	-0.020641794
255	0x3e9d33d9	0.3070362

deconv1.conv2d.bias f4 [16]
0	0xbd047017	-0.03233346
1	0xbe998d19	-0.2999046
2	0x3dade30e	0.08490573
3	0x390ebf46	0.0001361343
4	0x3e9ef8e4	0.31049263
5	0x3e8dcac0	0.27693748
6	0x3ebc6573	0.3679615
7	0x3e284b02	0.16434863
8	0xbe8dc5f0	-0.27690077
9	0x3dfaa153	0.122378014
10	0xbe797903	-0.24362569
11	0xbe261858	-0.16220224
12	0xbee5ce2e	-0.44883865
13	0x3b560e5d	0.003266237
14	0x3eed5f71	0.4636188
15	0x3e9f05a8	0.31059003

deconv1.conv2d.weight f4 [16, 32, 3, 3]
0	0xbd964714	-0.07337776
1	0xbe294675	-0.16530783
2	0x3e86ff23	0.2636653
3	0x3d8336a8	0.06406909
4	0x3f3784e2	0.7168714
5	0xbdd29eeb	-0.102842174
6	0xbcad0885	-0.021122226
7	0xbf0a78e6	-0.54090726
8	0x3d5767f4	0.05258937
9	0xbbce59da	-0.0062973322
10	0x3e00e1fe	0.12586209
11	0x3c40816f	0.011749609
12	0x39ed1346	0.00045218522
13	0x3e1de569	0.15419544
14	0x3eb8fdfd	0.36131278
15	0x3ea10c38	0.31454635
16	0x3e320cfe	0.17387769
17	0x3e81e239	0.25367907
18	0x3e69eae0	0.22843504
19	0xbd884619	-0.06653995
20	0x3e829f58	0.25512195
21	0xbe9ee53d	-0.3103427
22	0x3eec22ef	0.46120402
23	0x3dffd19e	0.12491153
24	0xbcf1d9cf	-0.029522805
25	0x3f0b20ce	0.5434693
26	0xbdcfb3c4	-0.101417094
27	0xbad651b2	-0.0016351251
28	0x3f1ab08e	0.6042565
29	0x3eb936ef	0.36174724
30	0xbda7873b	-0.0818009
31	0x3ee697bb	0.45037636
32	0x3dc4718a	0.09591968
33	0x3c961b24	0.018323489
34	0x3f5ff26d	0.8747929
35	0x3dd7e8a8	0.105424225
36	0xbe580633	-0.21096115
37	0xbcbf693a	-0.023365606
38	0x3eb55cc0	0.35422325
39	0x3ed888b2	0.4229179
40	0xbdc9cead	-0.098538734
41	0x3e91c290	0.28468752
42	0xbea125bf	-0.3147411
43	0xbea0f9c1	-0.31440547
44	0x3e4c9951	0.1998036
45	0x3e98db0f	0.29854628
46	0xbdc116f9	-0.0942821
47	0xbe0913ed	-0.13386507
48	0x3f15c612	0.58505356
49	0x3e921570	0.2853198
50	0x3ec0de21	0.3766947
51	0x3e9029b3	0.28156814
52	0xbdf12f7a	-0.117766336
53	0xbec6e751	-0.38848355
54	0x3f1e4b07	0.6183323
55	0x3cd6106e	0.026130881
56	0xbde8ef9e	-0.11373828
57	0xbea06f89	-0.31335095
58	0xbe9b03d1	-0.3027635
59	0x3e71c42c	0.2360999
60	0xbe5636bc	-0.20919317
61	0xbd1388e0	-0.036019206
62	0x3e518959	0.2046255
63	0xbe05e062	-0.13073877
64	0x3d9b61da	0.07587023
65	0xbc9d9419	-0.019235658
66	0xbe96e39f	-0.29470536
67	0xbe9d7c16	-0.30758733
68	0xbd33a82d	-0.043861557
69	0x3e3867a7	0.1800829
70	0x3e16c1cf	0.1472237
71	0xbf18a354	-0.5962422
72	0xbe18cd70	-0.14922118
73	0xbe96d94d	-0.29462662
74	0xbccd7c76	-0.025083762
75	0xbdc57f7c	-0.09643456
76	0x3f13bfc0	0.5771446
77	0xbed911a3	-0.42396268
78	0xbe4bb811	-0.19894435
79	0xbe4ff139	-0.20306863
80	0xbec6ecf9	-0.3885267
81	0xbecbee02	-0.39830023
82	0x3c03eae8	0.0080516115
83	0x3e4fab47	0.20280181
84	0x3e2e23ab	0.17005794
85	0x3e2d21b5	0.1690739
86	0x3d884b3e	0.06654976
87	0xbea7fb65	-0.32808986
88	0xbef55eeb	-0.4792398
89	0xbe042b01	-0.1290703
90	0x3d5388f9	0.0516443
91	0xbcb8b88e	-0.02254894
92	0x3d581ba9	0.052760754
93	0xbe02885c	-0.1274733
94	0xbd8664cf	-0.065621965
95	0xbd0fb138	-0.03508112
96	0xbed03d3c	-0.40671718
97	0xbe7a6254	-0.24451572
98	0xbe86def4	-0.26341975
99	0xbd72b381	-0.05925322
100	0x3d0a2446	0.033726
101	0x3cbc52df	0.022988735
102	0xbd220289	-0.0395532
103	0x3e47d685	0.19515426
104	0x3eb63a96	0.35591573
105	0x3b74a35a	0.003732881
106	0xbe09c22d	-0.13452978
107	0x3d54613a	0.051850535
108	0xbc892118	-0.016739413
109	0x3dbb2010	0.09136975
110	0xbddbd9fb	-0.10734936
111	0xbabc03f4	-0.001434444
112	0xbe76acbf	-0.24089335
113	0xbdcd5b49	-0.10027177
114	0x3de5e278	0.11224836
115	0x3d2d2725	0.04227366
116	0xbe509990	-0.2037108
117	0xbe812055	-0.2521998
118	0xbde967b7	-0.11396735
119	0xbdc5bc7f	-0.096550934
120	0x3deb6812	0.11494459
121	0xbdd6ab7b	-0.10481926
122	0x3c6e4382	0.014542462
123	0xbef8e618	-0.48613048
124	0xbe5b089e	-0.21390006
125	0x3e9dfc14	0.30856383
126	0x3e477213	0.1947711
127	0x3e448a32	0.19193342
128	0x3ed1d27f	0.40980908
129	0x3e921f36	0.28539437
130	0xbe432f6d	-0.1906106
131	0xbe5be817	-0.21475254
132	0x3ee80f32	0.45324093
133	0xbe4b045c	-0.19825882
134	0xbe72ffb4	-0.23730356
135	0x3b07d251	0.0020724724
136	0x3ede6acf	0.43440863
137	0x3d555fee	0.05209344
138	0xbf22ba30	-0.6356535
139	0xbd47dbf2	-0.04879374
140	0xbe5c8462	-0.21534875
141	0xbd7e03bd	-0.062015284
142	0xbec8ad47	-0.391947
143	0x3c62870c	0.013826143
144	0x3d958090	0.07299912
145	0x3e3dccdc	0.18535179
146	0x3e8c7a1b	0.2743691
147	0xbe8f6352	-0.28005463
148	0xbe0e33e1	-0.13886978
149	0x3f06e78a	0.5269705
150	0x3dd82fab	0.10555967
151	0xbf102c95	-0.56318027
152	0x3ecbe644	0.39824116
153	0x3eeafa74	0.45894206
154	0xbea9e636	-0.3318345
155	0xbd7c4204	-0.061586395
156	0xbca93c4d	-0.020658636
157	0x3df1d964	0.11809042
158	0x3ece8fb1	0.40344003
159	0x3e449dc3	0.19200806
160	0xbe4e31a0	-0.20136118
161	0xbb218270	-0.0024644397
162	0x3dbd68d8	0.09248513
163	0xbd26abd6	-0.04069122
164	0x3ebffa81	0.37495807
165	0xbe47f801	-0.195282
166	0xbd1916c0	-0.03737521
167	0xbe2ae2d8	-0.16688097
168	0x3dae45b5	0.08509389
169	0x3eacb565	0.33732143
170	0x3e18b5d7	0.14913116
171	0xbe87697c	-0.26447666
172	0x3e4ea2fe	0.20179364
173	0xbdca03ce	-0.09864007
174	0x3dc8824f	0.097904794
175	0xbe2f38ad	-0.17111464
176	0x3d4a3fd7	0.04937729
177	0xbdd806b2	-0.10548152
178	0xbe9b24d8	-0.30301547
179	0xbc09994c	-0.008398365
180	0x3ea0b9e7	0.31391832
181	0x3e5fb8b9	0.2184781
182	0x3e109dea	0.1412274
183	0xbe396210	-0.18103814
184	0xbe56a905	-0.20962913
185	0xbbf6f71e	-0.007536783
186	0x3caf36aa	0.02138837
187	0xbddb3d81	-0.1070509
188	0xbd02293a	-0.031777598
189	0x3ea06a27	0.31330988
190	0x3eb12d57	0.34604904
191	0xbe4586b1	-0.19289662
192	0xbdf11b17	-0.11772745
193	0xbe2339cd	-0.15940018
194	0x3e8b8c73	0.27255592
195	0xbec5fd8c	-0.38670003
196	0xbf02c64a	-0.51083815
197	0x3e911451	0.28335813
198	0x3e8bb869	0.2728913
199	0xbdb138d0	-0.08653414
200	0x3e4c7605	0.19966896
201	0xbdc4a899	-0.0960247
202	0x3debe36f	0.11517989
203	0x3e73e108	0.23816311
204	0x3e44aa2d	0.19205542
205	0x3e771554	0.2412923
206	0x3d82acad	0.063805915
207	0xbd3fa78e	-0.046790652
208	0x3f002238	0.50052214
209	0x3e9c9a2d	0.30586377
210	0xbe3df8d3	-0.1855195
211	0x3e816f26	0.25280112
212	0xbf11efe3	-0.57006663
213	0xbe6c3c03	-0.23069768
214	0x3d825a23	0.063648485
215	0xbc1a6173	-0.009422648
216	0xbe3b63ee	-0.18299839
217	0x3e529ac3	0.2056685
218	0x3e22328e	0.15839598
219	0x3ce78ff1	0.028266879
220	0x3f184d30	0.5949278
221	0x3ddd26f0	0.10798442
222	0x3d4d64da	0.050145008
223	0x3e195939	0.14975442
224	0xbf1372f0	-0.57597256
225	0x3e2bcd01	0.16777422
226	0xbdd52ccf	-0.10408937
227	0xbcd60071	-0.026123257
228	0xbde2d357	-0.11075466
229	0xbd91b870	-0.07115257
230	0x3d9526cc	0.072827905
231	0x3ee71be6	0.45138472
232	0xbe4cd007	-0.20001231
233	0x3e82edcc	0.2557205
234	0x3b5e32e1	0.0033904838
235	0x3bfe7d76	0.007766421
236	0xbe398822	-0.18118337
237	0x3c36a82a	0.011148492
238	0x3d5a4996	0.053292833
239	0xbe1630b9	-0.14667024
240	0x3e23caa7	0.15995274
241	0x3e1aaa69	0.15104069
242	0x3d8fc450	0.070198655
243	0xbd2647c1	-0.040595774
244	0x3e9861f2	0.29762226
245	0xbe7fde1b	-0.2498707
246	0xbe5ad72e	-0.21371147
247	0x3ec045e7	0.3755333
248	0xbe9fbd15	-0.31198946
249	0x3bf7c203	0.00756097
250	0x3f221c27	0.6332421
251	0xbe8330a1	-0.25623038
252	0x3b9f4313	0.004860291
253	0x3d261400	0.040546417
254	0xbe6f9903	-0.23398213
255	0xbf00ab89	-0.5026174

deconv2.conv2d.bias f4 [8]
0	0xbf0e3dd0	-0.5556307
1	0x3eaba62e	0.33525223
2	0x3ec4dec5	0.3845121
3	0xbe1c894e	-0.15286753
4	0xbe0c5d47	-0.13707457
5	0xbde3f1ea	-0.11130126
6	0xbf141640	-0.5784645
7	0xbd601bd7	-0.05471405

deconv2.conv2d.weight f4 [8, 16, 3, 3]
0	0xbc70ee8d	-0.014705312
1	0x3db5f4b3	0.08884563
2	0x3d8ed254	0.06973711
3	0x3cb9e2ad	0.022691095
4	0xbe92073a	-0.28521138
5	0x3cae9c87	0.021314872
6	0x3e6dc336	0.23218998
7	0xbe5b0270	-0.21387649
8	0x3d677847	0.05651119
9	0x3e133623	0.1437612
10	0x3d5a2dbc	0.053266272
11	0xbe661471	-0.22468735
12	0xbe094dee	-0.13408634
13	0x3d713e03	0.05889703
14	0x3d6a093a	0.057137705
15	0xbec599fb	-0.3859404
16	0xbd8a7c4b	-0.06761988
17	0x3e959043	0.29211625
18	0xbdca8afb	-0.0988979
19	0xbe209b07	-0.15684138
20	0x3dff7c75	0.1247491
21	0xbe6909e4	-0.22757679
22	0xbe104a35	-0.14090808
23	0xbe18f692	-0.14937809
24	0xbc83c6eb	-0.016086062
25	0xbe63032d	-0.2216918
26	0xbf05c1de	-0.5224894
27	0xbe3fa6f8	-0.18716037
28	0x3e4e113f	0.20123766
29	0xbe0fd053	-0.14044313
30	0x3cffdb8d	0.03123262
31	0x3e58e86d	0.21182413
32	0xbdf64393	-0.120246075
33	0x3bbf6fa6	0.005842167
34	0x3c966738	0.018359765
35	0xbc9a55cd	-0.018839741
36	0xbe232f9c	-0.1593613
37	0x3e3c26e7	0.18374215
38	0x3e19ed43	0.15031914
39	0xbe755d56	-0.23961386
40	0x3e6531f5	0.22382338
41	0x3e6786e6	0.22610053
42	0xbc1f7658	-0.009732805
43	0x3ea3fec9	0.32030323
44	0x3c8f043b	0.017458072
45	0x3d1b21e8	0.037874132
46	0xbe283243	-0.16425423
47	0x3d94cca8	0.072655976
48	0x3e5b1f8a	0.2139875
49	0x3d1c325b	0.03813396
50	0x3e0fe604	0.14052588
51	0x3d244f1e	0.040114515
52	0x3dff22a6	0.124577805
53	0x3e94d366	0.29067534
54	0xbe76d095	-0.24103005
55	0xbe738417	-0.23780857
56	0xbe511453	-0.2041791
57	0x3e157775	0.1459635
58	0x3ebbb262	0.36659533
59	0x3ccbb5ed	0.024867022
60	0xbe489333	-0.19587402
61	0x3dedc6a3	0.116101526
62	0x3e40e1f3	0.18836193
63	0xbe193d0a	-0.14964691
64	0xbde3b5e4	-0.11118677
65	0x3babdcbb	0.005244819
66	0x3e5abe76	0.21361718
67	0xbea29050	-0.31750727
68	0x3b849523	0.004046099
69	0x3e924bc9	0.28573444
70	0xbe3a9512	-0.18220928
71	0xbbc7aedc	-0.006093843
72	0x3d1bcc5c	0.03803669
73	0x3e4def33	0.20110779
74	0xbdf1a428	-0.117988884
75	0xbe2c1651	-0.16805388
76	0x3ee7c2fa	0.45265943
77	0x3db5997f	0.08867168
78	0xbe901fb8	-0.281492
79	0x3e5d912b	0.21637408
80	0x3d363f3e	0.044493906
81	0xbd38e598	-0.045140833
82	0x3edea091	0.43481877
83	0x3d97de1c	0.07415411
84	0xbe9a5c31	-0.3014846
85	0xbe58566c	-0.21126717
86	0xbeae1aa8	-0.34004712
87	0xbcacd89f	-0.021099387
88	0x3ebd3e39	0.36961535
89	0xbea7d0e9	-0.32776573
90	0x3eb12e8a	0.3460582
91	0xbec398ee	-0.38202614
92	0x3e428950	0.18997693
93	0xbcb23323	-0.0217529
94	0xbf09cf82	-0.53832257
95	0x3e89b41f	0.26895234
96	0x3e76d8e7	0.24106179
97	0xbec57dbb	-0.38572487
98	0x3e87fc02	0.26559454
99	0x3e8f46a6	0.27983588
100	0x3dbc8851	0.09205688
101	0xbe5324e4	-0.20619541
102	0x3e2088a7	0.15677129
103	0x3e9ba28c	0.3039745
104	0xbdd732d0	-0.105077386
105	0x3db90a05	0.09035114
106	0x3c4dbe5e	0.012557594
107	0x3c16475d	0.009172288
108	0x3e61ac2d	0.22038336
109	0xbe9057b2	-0.28191906
110	0x3d8d2358	0.06891507
111	0xbe109bf4	-0.14121991
112	0xbd1a0f8e	-0.03761249
113	0xbe0bfba8	-0.13670218
114	0xbea2b7a9	-0.31780747
115	0xbda044ad	-0.07825599
116	0x3e4cff32	0.20019224
117	0x3da64558	0.08118695
118	0x3e912fbe	0.28356737
119	0xbddc8989	-0.1076842
120	0xbf052181	-0.5200425
121	0x3f52f2ec	0.8240192
122	0x3ee11cde	0.43967336
123	0xbeabade5	-0.33531108
124	0xbe98efae	-0.2987036
125	0xbe73b190	-0.23798203
126	0x3eb3b3dc	0.3509816
127	0xbee25184	-0.44202816
128	0xbd713455	-0.0588878
129	0xbf864a66	-1.0491455
130	0x3f3081c4	0.68948007
131	0x3e4a61c2	0.19763854
132	0x3f0a835f	0.54106706
133	0xbe64766e	-0.22310802
134	0xbe5b4694	-0.21413642
135	0x3eb2699f	0.34846207
136	0x3dbf795c	0.09349319
137	0xbd88bd23	-0.066767
138	0xbf58efcb	-0.84740895
139	0xbee1e983	-0.44123468
140	0xbe871e90	-0.26390505
141	0x3edc7b1b	0.43062672
142	0x3ead087e	0.33795542
143	0x3f077fc3	0.52929324
144	0xbd2dbbd4	-0.042415455
145	0x3e13a217	0.14417301
146	0xbb86f64d	-0.004118717
147	0xbe0ed8a9	-0.13949837
148	0xbe79b8fd	-0.24386974
149	0xbde5d4cf	-0.11222231
150	0x3d89cabf	0.06728124
151	0x3d0d17da	0.034446575
152	0x3d778e71	0.060438577
153	0xbc5edf75	-0.013603081
154	0x3d21e644	0.03952624
155	0x3d809f06	0.06280331
156	0xbd15b371	-0.03654808
157	0xbde4ce69	-0.11172182
158	0xbd800334	-0.06250611
159	0x3de3d5d4	0.11124769
160	0xbd7fc279	-0.062441323
161	0x3e8b1862	0.2716704
162	0x3e58f3b6	0.21186718
163	0x3e7e4f3f	0.24834917
164	0x3ef1340f	0.4711003
165	0x3eaadf91	0.33373693
166	0x3e9d2cd8	0.30698276
167	0x3ea05cfe	0.31320947
168	0x3e7f44e7	0.24928628
169	0x3e363cdc	0.17796654
170	0xbd82ae9c	-0.0638096
171	0x3e5e87b8	0.2173146
172	0xbe879392	-0.26479775
173	0xbd7e75ba	-0.06212399
174	0x3e9f46d6	0.3110873
175	0xbec2ad92	-0.3802305
176	0x3e58a786	0.21157655
177	0x3e789e06	0.24279031
178	0xbee28671	-0.44243196
179	0x3da9cabc	0.08290622
180	0xbf0752fc	-0.52861
181	0x3efecc2c	0.49765146
182	0x3dddcb67	0.108298115
183	0x3e224a40	0.15848637
184	0x3ef377b2	0.47552258
185	0xbda3c3a2	-0.079962984
186	0x3d13440c	0.035953566
187	0x3e4ab418	0.19795263
188	0xbddc0444	-0.10743001
189	0x3e25f406	0.16206369
190	0xbe44e8a8	-0.19229376
191	0x3e39b7b9	0.18136491
192	0xbe098f2d	-0.13433523
193	0xbe378ca0	-0.17924738
194	0x3dd68e4e	0.10476361
195	0x3e1b70cc	0.15179747
196	0xbcf24e93	-0.029578483
197	0xbd080b56	-0.033213936
198	0xbe9afce2	-0.3027106
199	0xbf22a05c	-0.6352594
200	0xbd21f09d	-0.039536107
201	0x3e3b29e7	0.18277703
202	0x3dad65ca	0.0846668
203	0xbe4177a2	-0.18893293
204	0x3d9d6fe9	0.07687361
205	0x3ddcb601	0.10776902
206	0x3ea02229	0.31276062
207	0xbc92b4b5	-0.017908433
208	0x3e820cd1	0.25400403
209	0xbf025ebd	-0.5092581
210	0xbd956930	-0.072954535
211	0x3eb9aca1	0.36264518
212	0xbe96e82e	-0.29474014
213	0xbd7011f0	-0.058610857
214	0x3d8e2494	0.069405705
215	0xbe0f8ffa	-0.14019766
216	0x3d9555cd	0.07291756
217	0xbd939053	-0.07205262
218	0x3d703c82	0.058651455
219	0x3dd58a82	0.10426809
220	0xbcbbfbc0	-0.022947192
221	0x3e1ee3f4	0.15516645
222	0x3e111bc2	0.14170745
223	0xbe0833d3	-0.1330102
224	0x3dee0bbe	0.116233334
225	0xbe977a43	-0.29585466
226	0x3e4ea7d5	0.2018121
227	0xbd2c4fc6	-0.042068265
228	0x3d6897bc	0.05678533
229	0x3e745e7e	0.23864171
230	0xbd9d5725	-0.07682637
231	0xbdfaba60	-0.122425795
232	0xbd2161b2	-0.03939981
233	0xbe9f6fac	-0.31139886
234	0xbcd8dce7	-0.026472522
235	0xbe94ea6f	-0.2908511
236	0x3e8f1cd1	0.27951673
237	0xbca0e629	-0.019640999
238	0xbef41268	-0.47670293
239	0x3eddf644	0.43351948
240	0xbe29f658	-0.16597879
241	0xbe5abd77	-0.21361338
242	0x3f16a8d2	0.5885135
243	0x3df9b6e0	0.12193084
244	0x3e2c5037	0.16827475
245	0xbe6bdfe5	-0.23034628
246	0x3db09a6d	0.086232044
247	0x3ed1b125	0.40955463
248	0xbee80b99	-0.45321348
249	0x3db4c9c8	0.08827549
250	0x3eea22bd	0.45729628
251	0xbe79787b	-0.24362366
252	0x3e95dbdf	0.2926931
253	0x3d1ee94a	0.0387967
254	0x3e4e91a8	0.20172751
255	0x3dcec209	0.10095603

deconv3.conv2d.bias f4 [3]
0	0xbe8af23c	-0.27137935
1	0x3ec046e1	0.37554076
2	0xbdc50d11	-0.09621633

deconv3.conv2d.weight f4 [3, 8, 9, 9]
0	0xbbb8e632	-0.005642676
1	0xbe0c75f9	-0.13716878
2	0x3dcfe7f9	0.10151667
3	0x3eabee1e	0.33580106
4	0xbafec8b8	-0.0019438481
5	0xbd34aa79	-0.044107888
6	0x3e82645a	0.25467187
7	0x3d0ac4c6	0.033879064
8	0xbcb93809	-0.022609727
9	0x3d8bae99	0.06820411
10	0xbdf9395a	-0.12169142
11	0x3db847b3	0.089980505
12	0x3e874260	0.26417828
13	0xbae7828b	-0.0017662806
14	0x3d08231a	0.0332366
15	0x3dae0392	0.08496775
16	0xbe22da7a	-0.15903655
17	0xbe21da4a	-0.15805927
18	0xbdfeb261	-0.12436367
19	0x3e2e9c64	0.17051846
20	0x3e551991	0.20810534
21	0x3e0d5271	0.1380098
22	0x3e65371b	0.22384302
23	0x3dc64869	0.0968178
24	0x3e9ec168	0.31006932
25	0xbc380fae	-0.011234207
26	0xbda0d7d2	-0.078536645
27	0xbd2aee58	-0.04173121
28	0x3ec37791	0.3817716
29	0x3ebfce20	0.37461948
30	0x3f2b8dea	0.6701342
31	0x3e5365cf	0.20644306
32	0x3ed60eca	0.41808158
33	0xbabd87fc	-0.0014460082
34	0xbd8a6ced	-0.06759057
35	0xbe16abb1	-0.14713933
36	0xbf115812	-0.5677501
37	0xbe00b967	-0.12570725
38	0x3e692906	0.22769555
39	0xbe16a77a	-0.14712325
40	0xbdb9ccdf	-0.09072279
41	0x3f211305	0.62919647
42	0x3cfb7844	0.030696996
43	0x3dc21ce6	0.09478168
44	0xbb29f1df	-0.002593152
45	0xbf00d140	-0.5031929
46	0x3d827684	0.06370261
47	0x3fb507b1	1.4142972
48	0x3fcdd225	1.6079756
49	0x3db87711	0.09007085
50	0x3edc81c1	0.43067744
51	0xbbd01d32	-0.0063511366
52	0x3e5b0ae1	0.21390869
53	0x3d04bb47	0.032405164
54	0xbe96e3f1	-0.2947078
55	0x3d4ce211	0.05002028
56	0x3f462c49	0.77411324
57	0x3f8e3e40	1.1112747
58	0x3dc01f09	0.093809195
59	0x3f292294	0.6606839
60	0xbe045271	-0.12922074
61	0xbbea0a73	-0.007142359
62	0xbd0de278	-0.034639806
63	0xbdf25a55	-0.11833636
64	0x3d113ddb	0.03545938
65	0xbe8a827a	-0.2705267
66	0xbe6a76c0	-0.22896862
67	0x3d1fbe6e	0.038999967
68	0x3e2c98b8	0.16855133
69	0x3e15b8ab	0.14621226
70	0x3e0d927d	0.13825412
71	0xbe2045f8	-0.15651691
72	0x3d9dcd48	0.0770517
73	0x3d93c618	0.07215518
74	0xbea49af9	-0.32149485
75	0x3b2c3347	0.002627568
76	0x3e0b53ec	0.13606232
77	0xbdadcb73	-0.084860705
78	0xbd75e320	-0.060031056
79	0x3e1f8441	0.15577795
80	0xbe11855c	-0.14211029
81	0x3cc3ccb0	0.023901314
82	0xbccf88b3	-0.025333738
83	0xbe8188c5	-0.2529966
84	0x3d9386da	0.07203455
85	0x3d831b67	0.06401711
86	0xbe0a199d	-0.13486333
87	0x3dba0303	0.09082606
88	0xbaaa3d37	-0.0012988214
89	0xbc819aaf	-0.01582083
90	0xbe28ba6b	-0.16477363
91	0xbde05a5c	-0.10954735
92	0xbe1cd0dd	-0.1531405
93	0xbd4a6da8	-0.049420983
94	0x3c532369	0.01288686
95	0xbd5b15b2	-0.053487487
96	0xbd61cdf1	-0.05512804
97	0x3de851c1	0.11343718
98	0x3d99f666	0.075177
99	0x3d4779c9	0.048700128
100	0x3e1889a5	0.14896257
101	0x3e6041be	0.21900079
102	0x3db48c36	0.088158056
103	0x3e80eb98	0.25179744
104	0xbc559947	-0.013037032
105	0x3d26f4cc	0.0407608
106	0x3e798c2b	0.24369876
107	0x3df849f0	0.121234775
108	0xbc4354ff	-0.01192212
109	0x3e744cf0	0.23857474
110	0x3e35cbf6	0.17753586
111	0x3d777d24	0.060422078
112	0x3e16c697	0.14724194
113	0xbf01e18f	-0.507348
114	0xbdbb976b	-0.0915974
115	0x3e5fc0cb	0.21850888
116	0x3dc4740e	0.09592448
117	0xbe1d45bc	-0.15358633
118	0x3dd6464a	0.10462625
119	0x3e94319b	0.28944096
120	0x3f764bb1	0.96209246
121	0x3f945de8	1.1591158
122	0xbf109afb	-0.5648648
123	0x3d45a319	0.048251245
124	0x3d83b4e0	0.064309835
125	0x3dfff740	0.12498331
126	0xbe406002	-0.18786624
127	0xbd6686c8	-0.05628088
128	0xbdc4b253	-0.09604325
129	0x3fd88c63	1.6917843
130	0x3f8ea385	1.1143652
131	0xbf4f65bd	-0.81014615
132	0x3d30125f	0.04298627
133	0xbebc41b9	-0.36768892
134	0x3b885fd3	0.0041618138
135	0x3cee38f4	0.029079892
136	0x3dee22ba	0.11627717
137	0xbd774b0f	-0.060374316
138	0x3f808eed	1.0043617
139	0x3f013c9c	0.5048311
140	0xbe8de720	-0.27715397
141	0x3e0521a5	0.13001116
142	0xbe250a40	-0.16117191
143	0x3e043525	0.12910898
144	0xbded1bd8	-0.115775764
145	0x3dbc3e6a	0.09191592
146	0x3c6af059	0.01433953
147	0x3e6825f9	0.22670735
148	0x3e9614fc	0.29312885
149	0x3a92e4b2	0.0011207073
150	0xbd486521	-0.04892457
151	0xbce4c77d	-0.027927155
152	0x3d8749a4	0.06605843
153	0xbd3ea0e5	-0.04654016
154	0xbd8eb7fb	-0.06968685
155	0x3dc3d1eb	0.09561523
156	0x3c19ff5e	0.009399263
157	0x3c9b8050	0.018982083
158	0x3e7459ac	0.23862332
159	0x3ce84223	0.028351849
160	0xbcf78ef1	-0.030219527
161	0xbc652154	-0.013984997
162	0x3d96b338	0.07358402
163	0x3d9171cb	0.071017824
164	0x3d82e230	0.06390798
165	0x3e3fa863	0.18716578
166	0x3e4aced3	0.1980546
167	0x3e0e67b3	0.13906746
168	0x3e35fd20	0.17772341
169	0x3e70abae	0.2350299
170	0x3ea69935	0.32538763
171	0x3e42a1bc	0.1900701
172	0x3dda62b7	0.106633596
173	0xbe2ce287	-0.16883288
174	0xbe161b59	-0.1465887
175	0xbe721bfa	-0.23643485
176	0x3e9f0d79	0.31064966
177	0x3ec71bac	0.388883
178	0x3e5bdab4	0.21470147
179	0xbc29b470	-0.010357961
180	0x3d7fe67a	0.06247566
181	0x3ef49a94	0.47774184
182	0x3f0c72b2	0.5486251
183	0x3e018947	0.12650023
184	0x3e0e4373	0.13892917
185	0x3e45c93b	0.19315045
186	0x3e9d82d3	0.30763873
187	0x3e256181	0.16150476
188	0x3dd95088	0.10611063
189	0x3d8c3a82	0.06847097
190	0x3ed63211	0.41835073
191	0x3ef30296	0.4746291
192	0x3f24ab3a	0.6432377
193	0x3eaf49b0	0.34235907
194	0x3eb3c5eb	0.35111937
195	0x3df6f6ee	0.12058817
196	0xbc83360b	-0.01601698
197	0x3cc6d6db	0.024272373
198	0x3e7cd278	0.24689662
199	0x3cc6e498	0.024278924
200	0xbf4bdf75	-0.79637843
201	0xbf3083e5	-0.68951255
202	0xbeac1cc9	-0.3361571
203	0x3efd7de1	0.495101
204	0x3e07134c	0.13190955
205	0x3dfcd161	0.12344623
206	0x3e9825a3	0.29716215
207	0x3e0fb1cb	0.14032666
208	0x3f531cd8	0.8246589
209	0x3f8acd76	1.0843952
210	0xbd0a2a81	-0.03373194
211	0x3e4cbd6b	0.19994132
212	0x3f06a4d0	0.52595234
213	0x3db9a2bc	0.09064242
214	0x3e55e53c	0.20888227
215	0x3eb99c77	0.36252186
216	0xbd2d9684	-0.04237987
217	0x3eac4159	0.33643606
218	0x3f7d4667	0.9893555
219	0x3f2e19d8	0.68008184
220	0x3f0a6b83	0.540703
221	0x3f1278a1	0.57215315
222	0x3eb997a5	0.36248508
223	0x3e7a8029	0.24462952
224	0x3e5e1cc0	0.21690655
225	0x3e1f221a	0.15540352
226	0xbd8fa20f	-0.07013332
227	0xbf044ad5	-0.51676685
228	0xbe9db07b	-0.30798706
229	0xbe0ce5b4	-0.137595
230	0x3de71f13	0.11285224
231	0x3e241a5f	0.16025685
232	0x3d716e9f	0.058943387
233	0x3d3440c4	0.044007078
234	0x3db0bc9e	0.08629726
235	0x3ec71aae	0.38887542
236	0x3d1b5f8f	0.03793293
237	0x3ea7d0d9	0.32776526
238	0x3e3501c4	0.17676455
239	0x3de6b487	0.112649016
240	0x3d82de13	0.063900135
241	0x3d3752cc	0.044756696
242	0x3e7bf318	0.24604452
243	0x3d97bb15	0.0740873
244	0xbe0f607a	-0.14001647
245	0x3d9c55f4	0.07633582
246	0x3d96b218	0.073581874
247	0xbe16042b	-0.14650027
248	0xbc8cb08c	-0.017174028
249	0x3d594be3	0.053050887
250	0xbd938edd	-0.072049834
251	0x3dd3e6ea	0.10346778
252	0xbe3ace48	-0.18242753
253	0x3b9f319b	0.0048582084
254	0x3e4220b3	0.18957786
255	0xbc7e66b7	-0.015527419

in1.bias f4 [8]
0	0x3f21497e	0.63002765
1	0x3f742bf7	0.95379585
2	0x3f5e28e9	0.86781174
3	0x3f966dca	1.1752255
4	0x3fff7bc1	1.9959642
5	0x3f3e14b6	0.7425035
6	0x3fea1e09	1.8290416
7	0x3f5e9ca8	0.8695779

in1.weight f4 [8]
0	0x3eccec7c	0.40024173
1	0x3e8c7588	0.2743342
2	0x3ee665ef	0.44999644
3	0x3ebe9c14	0.37228453
4	0x3ee9e2fb	0.45680985
5	0x3ed8607d	0.42261115
6	0x3ee736e6	0.45159072
7	0x3e8622b2	0.26198345

in2.bias f4 [16]
0	0xbc45c8d4	-0.012071807
1	0x3f6d07c6	0.92589986
2	0x3fbc8cc0	1.4730453
3	0x3d4d54ea	0.05012981
4	0xbc3e8557	-0.01162847
5	0xbc5f98d8	-0.013647281
6	0x3d952ffb	0.07284542
7	0x3f168d90	0.5880976
8	0x3e63cbdd	0.22245736
9	0x3fcffa7b	1.6248316
10	0x3f301569	0.6878267
11	0x3ea7267b	0.32646546
12	0x3f436264	0.7632201
13	0x3f1eda78	0.62052107
14	0x3fbd0b1f	1.4769019
15	0x4039b3be	2.9015956

in2.weight f4 [16]
0	0x3ee84f6c	0.45373094
1	0x3eb46686	0.3523447
2	0x3e5be13f	0.21472643
3	0x3f27bda6	0.65523756
4	0x3f010171	0.50392824
5	0x3ece0928	0.4024136
6	0x3ee3a095	0.44458452
7	0x3ebe7c67	0.37204286
8	0x3ec40da2	0.3829165
9	0x3e80a3d9	0.25125006
10	0x3ed3e574	0.41385996
11	0x3e323a3c	0.17405027
12	0x3e60d944	0.2195788
13	0x3e9a3238	0.3011644
14	0x3e8ebf78	0.27880454
15	0x3eb596ed	0.3546671

in3.bias f4 [32]
0	0xbc885475	-0.016641835
1	0x3ea1b07a	0.31579953
2	0x3cc3afd2	0.023887549
3	0x3ca44bfd	0.020055765
4	0xbb6737d7	-0.0035281086
5	0xbc3d8af4	-0.011568774
6	0x3eb7533b	0.35805687
7	0xbade986a	-0.0016982679
8	0xba3920c4	-0.00070620724
9	0xbd0b94ed	-0.034077574
10	0xbec0f721	-0.37688544
11	0x3e67a723	0.22622351
12	0xbca27aa6	-0.019833874
13	0xbd1578bf	-0.036492106
14	0x3e375350	0.17902875
15	0x3ef09368	0.46987462
16	0xbdd01b2c	-0.101614326
17	0x3e1b1525	0.15144785
18	0x3ee02512	0.43778282
19	0x3cde2792	0.027118478
20	0x3d6461d9	0.055757377
21	0x3ddcacab	0.10775121
22	0x3ebcfa9f	0.3690996
23	0x3dc4e558	0.09614056
24	0xbe0a181f	-0.13485764
25	0x3e3f939e	0.18708655
26	0xbd8805ff	-0.06641769
27	0x3c858876	0.016300421
28	0x3d7b6c7e	0.061382763
29	0x3ed4756b	0.41495833
30	0xbbee6256	-0.007274906
31	0x3def50fa	0.11685367

in3.weight f4 [32]
0	0x3dafc529	0.08582527
1	0x3ddf55e4	0.10905054
2	0x3e288d35	0.16460116
3	0x3da392aa	0.07986958
4	0x3de35ccd	0.11101685
5	0x3dfe09de	0.12404226
6	0x3dc554a0	0.096352816
7	0x3e18aff0	0.14910865
8	0x3e1463b1	0.14491154
9	0x3e614799	0.21999969
10	0x3ec4a228	0.38404965
11	0x3de72759	0.11286802
12	0x3e06ebca	0.13175884
13	0x3e621bbc	0.22080892
14	0x3e04f513	0.12984113
15	0x3e2eb185	0.17059906
16	0x3e81303a	0.25232106
17	0x3dc550ae	0.09634529
18	0x3de6138f	0.11234199
19	0x3dfe05de	0.12403463
20	0x3e1a75ec	0.15084046
21	0x3d8c49be	0.06850003
22	0x3e1077fd	0.14108272
23	0x3e0b6f12	0.13616589
24	0x3f0bd5e9	0.54623276
25	0x3dd02896	0.10163991
26	0x3e94524f	0.28969046
27	0x3e02d143	0.1277514
28	0x3e270857	0.16311775
29	0x3dcf83a4	0.1013253
30	0x3e200e05	0.15630348
31	0x3da34d3b	0.07973715

in4.bias f4 [16]
0	0x3fd01d13	1.6258873
1	0x3f3fc745	0.74913436
2	0x3f0ed124	0.55787873
3	0xbed568ff	-0.41681668
4	0x40562594	3.3460436
5	0x3f906d14	1.1283288
6	0xbe346aa2	-0.17618802
7	0x3e8c98c6	0.27460307
8	0x3f7d53f9	0.9895626
9	0xbeb91a49	-0.36152866
10	0xbece2edf	-0.40270135
11	0xbda7c652	-0.081921235
12	0x3fe51939	1.7898322
13	0xbf0190de	-0.50611675
14	0xbf117aba	-0.5682789
15	0xbf006853	-0.50159186

in4.weight f4 [16]
0	0x3f428473	0.7598335
1	0x3f259522	0.64680684
2	0x3eb9acd6	0.36264676
3	0x3fdb2b18	1.7122526
4	0x3f8c104d	1.0942475
5	0x3f8387b9	1.0275794
6	0x3f9c2a5b	1.2200426
7	0x3f90feb3	1.1327728
8	0x3f817492	1.01137
9	0x3fa0ac62	1.2552607
10	0x3fa7ba96	1.3103817
11	0x3fa01a2e	1.250799
12	0x3f2637c9	0.6492887
13	0x3fb2a432	1.3956358
14	0x3fb409a8	1.4065447
15	0x3f9185d7	1.136897

in5.bias f4 [8]
0	0x3fd58703	1.6681827
1	0x3fa4a4e7	1.2862824
2	0x4019aba5	2.4011014
3	0x3e316198	0.17322385
4	0x3e5bbe50	0.21459317
5	0x4012af46	2.2919478
6	0x3e3144a8	0.17311347
7	0x3f1ea106	0.6196445

in5.weight f4 [8]
0	0x3ff0a162	1.879925
1	0x3fe6e3b3	1.8038238
2	0x3f82b9d6	1.0212963
3	0x401f3f6f	2.4882467
4	0x3fefb7ae	1.872793
5	0x3fbd5a3f	1.4793166
6	0x3f82c017	1.0214871
7	0x4034e192	2.8262677

resnets.0.conv1.conv2d.bias f4 [32]
0	0xbe524dd5	-0.20537503
1	0x3f4994bb	0.7874257
2	0x3e2b8f4d	0.16753884
3	0xbb163d91	-0.002292488
4	0xbcdbe5ae	-0.026842918
5	0x3cf8bf8e	0.030364778
6	0x3bab7b8e	0.0052332347
7	0x3dce618a	0.10077198
8	0x3e499c8c	0.19688624
9	0x3df264c3	0.11835625
10	0xbeb0df5f	-0.3454542
11	0xbc178555	-0.009248097
12	0x3dc6108d	0.096711256
13	0x3e372c03	0.17887883
14	0x3e807211	0.25087026
15	0xbc9a67ea	-0.018848378
16	0xbd4882f7	-0.048953023
17	0xbec459f5	-0.38349882
18	0x3db68898	0.08912772
19	0x3dd0127e	0.10159777
20	0xbe0f4484	-0.1399098
21	0x3cc5e3ae	0.024156418
22	0x3d40c9bd	0.047067393
23	0xbeb998ca	-0.3624938
24	0xbdde0d62	-0.10842396
25	0xbed45b57	-0.41475937
26	0xbed6a510	-0.41922808
27	0x3e67b144	0.22626215
28	0xbf11dacb	-0.56974477
29	0x3e960155	0.2929789
30	0xbe9701f5	-0.2949368
31	0xbe5bbe60	-0.21459341
