Week_02/example_ONNX/matrix.onnx (onnx, 443727 bytes, 64 tensors)

141 f4 [4]
1.0 1.0 2.0 2.0
00000000: 0000 803f 0000 803f 0000 0040 0000 0040

142 f4 [4]
1.0 1.0 2.0 2.0
00000000: 0000 803f 0000 803f 0000 0040 0000 0040

conv1.conv2d.bias f4 [8]
0.41860467 0.14772916 0.15362616 0.3061286 0.38020918 -0.59851736 0.016114056 0.1630419
00000000: 5a53 d63e 5046 173e 2d50 1d3e e3bc 9c3e
00000010: c7aa c23e 6f38 19bf a001 843c 75f4 263e

conv1.conv2d.weight f4 [8, 3, 9, 9]
0.17917542 0.43745464 0.23402296 0.21898739 0.27932945 0.7771398 0.4513731 0.6266704
0.26400173 0.61524785 0.38737231 0.6216736 0.84429693 0.4282703 -0.20670378 -0.29970273
0.312614 0.6681233 -0.007914329 0.5810043 0.41298956 -0.73043394 -0.3244939 -1.3464353
-0.75333774 -0.021112686 -0.0087739695 0.39692676 0.75700253 -0.71548605 -0.51313025 -0.56932825
-1.174673 -1.1655695 -0.24389982 -0.047051504 -0.0015368656 0.23126613 -0.37400422 1.3934841
0.8455204 -0.29144412 0.10863823 0.09245123 -0.36652187 0.49528486 0.37436807 0.10707255
-0.06552165 0.8468381 0.58591 0.013685312 0.15280752 -0.1669933 0.38527974 0.17252906
0.5771134 0.03974717 0.005457129 0.15004373 0.031401236 -0.05918497 -0.15619121 0.28885585
0.5569986 -0.09811788 0.28207377 0.3541927 -0.19703205 0.24811716 0.10313844 -0.1786449
0.0014834923 -0.059504583 0.3587895 0.20252961 0.41832706 0.6110322 -0.14219175 0.1071416
-0.08121178 0.5593555 0.4959752 -0.070337825 -0.007319472 -0.0032699965 0.6128742 0.35498112
0.33707336 0.024835799 0.32288998 0.0009259805 0.36787087 0.84697425 0.72819483 0.12554687
-0.11433896 -0.05102593 0.20488878 0.11439815 1.0103438 0.9676323 -0.11603728 0.79246354
0.051721107 0.6028907 0.3072852 -0.43790737 0.7633114 1.4892219 -0.36727035 -0.110698126
-0.383563 -0.96737885 -0.21586695 0.5031132 0.013047366 0.33279777 0.16723564 -0.61406344
1.465646 0.109227486 -1.3719416 0.11318099 0.5125278 -0.35020295 0.8832492 0.4375013
0.11048807 -0.5981402 0.21326746 0.013216967 -0.15884253 0.30100206 -0.20712535 0.6627905
0.16075976 0.95855427 0.1493743 -0.045884915 0.2155251 -0.008306848 0.06923433 -0.16463625
0.60369956 0.6083936 0.059436847 0.61155164 0.4635858 -0.29619718 -0.0010082308 0.034302715
-0.21055281 0.27781063 -0.031414036 0.5288434 0.42299658 0.4793905 0.6838731 -0.029881619
-0.06154152 -0.10443626 0.62915623 0.5922356 0.20759438 -0.10081419 0.006484329 0.29363194
0.04954782 0.41253984 0.18920043 0.3548101 0.013374059 -0.038267884 0.32996187 0.115837894
-0.07437565 -0.2407578 -0.012812533 0.4411988 -0.1151236 0.14513525 0.5608601 0.24432649
0.73871684 0.020285873 0.2801031 0.1760209 -0.06934673 0.36125588 0.95756936 0.3006302
0.4373582 0.14214993 0.1580456 0.17999054 0.43449378 0.30662426 0.25049454 0.47483814
-0.05509436 0.50282896 -0.34095234 -0.5589692 0.4311609 0.37613964 -0.227593 0.44351158
0.40569463 0.2592673 -0.5626931 0.19293621 0.22950108 -0.07103286 0.09642304 -0.18271476
0.5717376 0.18360391 0.8111194 0.47935098 0.48480663 0.38551593 0.0230689 -0.12137923
-0.14010431 0.17512225 0.21113744 -0.21802044 0.45298702 0.32916585 -0.46037063 -0.3147722
-0.20040753 -0.111968115 0.1122445 -0.109971605 0.25386232 0.04662541 0.33152276 0.40623823
-0.1302443 -0.18949087 -0.30108958 -0.32770777 0.21535575 0.042403933 0.38257277 0.20416178
-0.030620968 -0.45726827 0.51243657 -0.0553339 0.1777229 -0.080016576 0.06981829 0.92809933
00000000: c379 373e 0efa df3e b7a3 6f3e 3b3e 603e
00000010: 4504 8f3e a2f2 463f 601a e73e 796d 203f
00000020: 3c2b 873e e280 1d3f aa55 c63e 0026 1f3f
00000030: d823 583f 3f46 db3e 28aa 53be a372 99be
00000040: f10e a03e 210a 2b3f 1aab 01bc b3bc 143f
00000050: 5e73 d33e b8fd 3abf 1124 a6be fe57 acbf
00000060: beda 40bf 83f4 acbc b2c0 0fbc fc39 cb3e
00000070: ebca 413f 182a 37bf 815c 03bf 7fbf 11bf
00000080: af5b 96bf 6231 95bf e0c0 79be 14b9 40bd
00000090: a770 c9ba 07d1 6c3e 7b7d bfbe b05d b23f
000000a0: 0674 583f 2a38 95be b87d de3d 1257 bd3d
000000b0: c1a8 bbbe fa95 fd3e 2cad bf3e da48 db3d
000000c0: 3730 86bd 62ca 583f 33fe 153f 5c38 603c
000000d0: 9379 1c3e 4b00 2bbe 6343 c53e 75ab 303e
000000e0: b4bd 133f eecd 223d b7d1 b23b 10a5 193e
000000f0: 959e 003d f06b 72bd 97f0 1fbe eae4 933e
00000100: 7697 0e3f 07f2 c8bd f96b 903e bf58 b53e
00000110: c5c2 49be 6d12 7e3e 3f3a d33d b0ee 36be
00000120: be71 c23a 14bb 73bd 42b3 b73e ec63 4f3e
00000130: f72e d63e 9b6c 1c3f b79a 11be 0e6d db3d
00000140: 5d52 a6bd ec31 0f3f 76f0 fd3e 470d 90bd
00000150: 2ed8 efbb 704d 56bb 53e5 1c3f 16c0 b53e
00000160: e194 ac3e 7274 cb3c d651 a53e 80bd 723a
00000170: 9259 bc3e 4ed3 583f fa6a 3a3f 5c8f 003e
00000180: 8b2a eabd 9100 51bd 5dce 513e 9449 ea3d
00000190: f252 813f c0b6 773f f4a4 edbd e4de 4a3f
000001a0: 83d9 533d 0b57 1a3f 7c54 9d3e 6535 e0be
000001b0: 6068 433f d39e be3f dc0a bcbe b3b5 e2bd
000001c0: 5f62 c4be 24a6 77bf 3a0c 5dbe 07cc 003f
000001d0: 9fc4 553c 7864 aa3e d23f 2b3e 4333 1dbf
000001e0: 4a9a bb3f a9b2 df3d c89b afbf 6fcb e73d
000001f0: 0635 033f cd4d b3be 9f1c 623f 2c00 e03e
00000200: 9247 e23d b71f 19bf c962 5a3e fa8b 583c
00000210: 9ea7 22be f11c 9a3e ab18 54be a3ac 293f
00000220: 359e 243e d063 753f 94f5 183e d2f1 3bbd
00000230: 9db2 5c3e 7219 08bc baca 8d3d 6896 28be
00000240: 0e8c 1a3f afbf 1b3f 0d74 733d a68e 1c3f
00000250: 1e5b ed3e 28a7 97be 9d26 84ba 0181 0c3d
00000260: 289b 57be 323d 8e3e 01ac 00bd 4862 073f
00000270: 0293 d83e ac72 f53e 4f12 2f3f 4cca f4bc
00000280: f612 7cbd aee2 d5bd 6210 213f c19c 173f
00000290: 9f93 543e ac77 cebd 7e7a d43b ed56 963e
000002a0: a8f2 4a3d 6c38 d33e c2bd 413e aba9 b53e
000002b0: df1e 5b3c c9be 1cbd c3f0 a83e 6b3c ed3d
000002c0: 4352 98bd 3689 76be a9eb 51bc cfe4 e13e
000002d0: ecc5 ebbd 569e 143e 8794 0f3f b930 7a3e
000002e0: 8c1c 3d3f 8f2e a63c ac69 8f3e d33e 343e
000002f0: a905 8ebd 88f6 b83e 4423 753f 34ec 993e
00000300: 6aed df3e c08f 113e b5d6 213e 714f 383e
00000310: f875 de3e dbfd 9c3e d240 803e fc1d f33e
00000320: a0aa 61bd 66b9 003f 4e91 aebe 9b18 0fbf
00000330: 1fc1 dc3e 6095 c03e 240e 69be f313 e33e
00000340: 35b7 cf3e afbe 843e a80c 10bf 1291 453e
00000350: 5502 6b3e ad79 91bd 7179 c53d 9419 3bbe
00000360: 655d 123f aa02 3c3e 85a5 4f3f 7e6d f53e
00000370: 9338 f83e 5862 c53e fdfa bc3c ac95 f8bd
00000380: 8177 0fbe 3f53 333e 6a34 583e c040 5fbe
00000390: eaed e73e 6d88 a83e b3b5 ebbe d229 a1be
000003a0: a237 4dbe 8a4f e5bd 72e0 e53d cb38 e1bd
000003b0: 3efa 813e 49fa 3e3d 5abd a93e 75fe cf3e
000003c0: c35e 05be e509 42be 6a28 9abe 50c9 a7be
000003d0: 3886 5c3e bfaf 2d3d 94e0 c33e c90f 513e
000003e0: d3d8 fabc 111f eabe 0b2f 033f cda5 62bd
000003f0: fefc 353e bbdf a3bd e4fc 8e3d eb97 6d3f

conv2.conv2d.bias f4 [16]
-0.42841816 -1.0846062 0.8279149 -0.46080962 0.5239799 -0.26439884 -0.41754565 -0.96256524
-0.59734094 -0.27013803 0.985607 -0.104016244 0.044607617 -0.63062817 -0.30748704 0.045054164
00000000: a059 dbbe 60d4 8abf 3bf2 533f 3def ebbe
00000010: 8c23 063f 495f 87be 8bc8 d5be ad6a 76bf
00000020: 56eb 18bf 884f 8abe be50 7c3f 7806 d5bd
00000030: 7ab6 363d d970 21bf f16e 9dbe b78a 383d

conv2.conv2d.weight f4 [16, 8, 3, 3]
-0.09119725 -0.24966747 -0.2657826 -0.11394253 -0.0145913325 0.04627257 0.57764375 -0.02678537
-0.15523566 0.03139456 0.41776422 -0.16209997 -0.022754898 -0.16275036 -0.042092994 0.08911603
-0.30905518 0.38831994 -0.20198631 0.21471758 -0.37252256 -0.40307158 0.75441563 0.28552487
-0.4387874 0.34990767 -0.60036373 0.890912 0.09498197 0.17497481 0.13508922 -0.6691875
0.3913318 -0.095058255 -0.87241316 0.5192393 0.40035975 -0.31696782 -0.25500217 0.9561581
0.08376655 -0.22833255 0.26212695 -0.12617075 -0.3776874 0.43754476 -0.33079657 0.037957028
-0.11728437 -0.5176757 0.30949184 -0.96725565 -0.41825286 1.3174561 0.20679814 -0.6082245
0.3328388 0.1905546 -0.9419934 0.62914604 0.15600295 -0.5043934 0.5094315 0.6222948
-0.3885098 0.2608019 0.78720933 -0.5043516 -0.20134862 0.657934 -0.5184956 -0.28253177
-0.2536984 -0.3219465 0.36790138 -0.30445018 -0.63875246 -0.2657669 -0.5282291 -0.7755686
-0.4157985 0.3256059 0.13203764 0.6174626 -0.0054981667 -0.16750252 0.7567638 -0.08200685
-0.23818853 0.9770756 -0.18435706 0.120976515 -0.025648387 0.10755797 0.36400944 -0.2641998
0.18381205 0.39284784 -0.06961081 -0.23259068 -0.6246076 -0.6779812 -0.7056195 -1.3712198
-0.87961197 -0.5344971 -1.1905737 -1.165012 -0.025528342 -0.23462917 0.17736684 0.22951849
0.53766406 0.6123305 -0.44207507 -0.09927588 -0.046776272 -0.38274285 -0.49258965 0.18507077
-0.16195329 -0.035125308 1.4176117 0.18271063 0.71613413 1.9615813 -0.5244741 -0.31794906
-0.2530573 -0.36805844 -0.30119845 -0.36161923 0.54163253 0.6542852 -0.28690612 0.525537
-0.09445145 -0.09237017 0.39147875 -0.122207336 -0.39456052 0.52531916 -0.0065696402 -0.056604784
0.06830404 0.08194504 0.08696371 -0.0230762 -0.17280003 -0.26915228 0.04348144 -0.008736067
-0.20429341 -0.10118882 0.09767772 0.019952144 0.15094279 -0.15968637 0.48974833 -0.055456474
-0.5405657 0.5771383 -0.20829603 -0.043281794 -0.1183223 -0.30181864 0.30601493 0.21618816
-0.19409816 0.32255206 0.2732931 0.06949876 1.0403727 -0.1281114 2.3852339 2.7245615
-0.046823073 0.81214696 0.26488662 -0.22021414 -0.095696926 -0.4699958 -0.14363527 -0.067933366
-0.46204197 -0.19870599 -0.19064032 0.171667 0.2491557 -0.102644935 0.19110633 -0.115122996
0.21265717 -0.2717405 0.14574488 0.3352272 -1.3826061 -0.52176034 0.09205233 0.13552457
0.13403086 0.2137781 -0.056906756 0.32528833 0.05416344 -0.04619806 -0.28246003 -0.17747526
-0.015219996 0.58829874 0.45152503 0.23216982 -0.5555671 1.1095272 0.07400791 -1.5813993
-0.4367166 0.4075737 -0.40203434 -0.3758032 1.0105268 0.058956083 -0.31263676 -0.20777185
0.012361277 0.106840834 0.014609496 -0.3072995 0.14497428 -0.5177959 -0.63650787 0.56501347
0.2430141 0.051871363 -0.12608209 0.26071063 0.638878 -0.14118664 0.33185464 0.27925894
-0.29601902 -0.29664224 -0.6131951 0.5661969 0.4780412 -0.4540925 0.3057071 0.20563264
-0.9333135 -0.12709796 -0.031501688 -0.5070242 0.23577565 0.29800263 0.02171969 -0.18104908
00000000: a0c5 babd d4a8 7fbe a814 88be b35a e9bd
00000010: 7c10 6fbc 4e88 3d3d 76e0 133f fe6c dbbc
00000020: 19f6 1ebe 9597 003d 31e5 d53e 89fd 25be
00000030: 7b68 babc 08a8 26be b469 2cbd 7782 b63d
00000040: 7b3c 9ebe dfd1 c63e 80d5 4ebe edde 5b3e
00000050: 47bb bebe 665f cebe 6221 413f 5130 923e
00000060: bea8 e0be 1927 b33e 70b1 19bf cf12 643f
00000070: e885 c23d 992c 333e d454 0a3e df4f 2bbf
00000080: a45c c83e e7ad c2bd 7856 5fbf deec 043f
00000090: f4fb cc3e 9b49 a2be a58f 82be c7c6 743f
000000a0: cc8d ab3d 02d0 69be 8135 863e e832 01be
000000b0: 3e60 c1be de05 e03e 2b5e a9be d478 1b3d
000000c0: ca32 f0bd 6586 04bf b775 9e3e 119e 77bf
000000d0: 3d25 d6be 67a2 a83f e4c2 533e 9ab4 1bbf
000000e0: d969 aa3e bf20 433e 7b26 71bf b70f 213f
000000f0: 3dbf 1f3e ed1f 01bf 1a6a 023f b64e 1f3f
00000100: c2ea c6be d487 853e 8d86 493f 301d 01bf
00000110: 552e 4ebe 5d6e 283f 21bc 04bf 01a8 90be
00000120: c2e4 81be 2cd6 a4be 925d bc3e e5e0 9bbe
00000130: 4885 23bf 9912 88be 063a 07bf aa8b 46bf
00000140: 8ae3 d4be d1b5 a63e e034 073e 0712 1e3f
00000150: f729 b4bb c885 2bbe 46bb 413f 35f3 a7bd
00000160: b2e7 73be a021 7a3f 19c8 3cbe 89c2 f73d
00000170: 911c d2bc 5a47 dc3d 725f ba3e 3245 87be
00000180: 3a39 3c3e 5a23 c93e 1d90 8ebd 402c 6ebe
00000190: 49e6 1fbf 2d90 2dbf 7ba3 34bf 2184 afbf
000001a0: 402e 61bf cdd4 08bf b864 98bf 1d1f 95bf
000001b0: d020 d1bc a142 70be a79f 353e e506 6b3e
000001c0: 5aa4 093f b1c1 1c3f aa57 e2be 2751 cbbd
000001d0: 7a98 3fbd dff6 c3be b634 fcbe 3183 3d3e
000001e0: 15d7 25be 8edf 0fbd 4d74 b53f 7f18 3b3e
000001f0: 9154 373f 1915 fb3f ef43 06bf 38ca a2be
00000200: ba90 81be 2872 bcbe af36 9abe 2826 b9be
00000210: 6ea8 0a3f 3c7f 273f 5ce5 92be 9889 063f
00000220: c36f c1bd 922c bdbd e76f c83e d747 fabd
00000230: d603 cabe 517b 063f 2346 d7bb 6bda 67bd
00000240: fde2 8b3d cdd2 a73d 081a b23d 4d0a bdbc
00000250: 7ef2 30be 54ce 89be 9819 323d b921 0fbc
00000260: 4b32 51be 163c cfbd 420b c83d ae72 a33c
00000270: bf90 1a3e d384 23be 4bc0 fa3e 5426 63bd
00000280: 8462 0abf 56bf 133f 8e4b 55be 4048 31bd
00000290: f652 f2bd f987 9abe fdad 9c3e 6e60 5d3e
000002a0: abc1 46be 8b25 a53e 13ed 8b3e 5e55 8e3d
000002b0: ef2a 853f a32f 03be aca7 1840 375f 2e40
000002c0: 8dc9 3fbd dde8 4f3f 389f 873e d17f 61be
000002d0: c0fc c3bd 4aa3 f0be 2015 13be a620 8bbd
000002e0: c490 ecbe 9579 4bbe 3737 43be 79c9 2f3e
000002f0: ac22 7f3e 8237 d2bd 61b1 433e 9bc5 ebbd
00000300: cdc2 593e 9221 8bbe 253e 153e e6a2 ab3e
00000310: 3df9 b0bf 1692 05bf ef85 bc3d f4c6 0a3e
00000320: 633f 093e a5e8 5a3e 0f17 69bd 318c a63e
00000330: 7cda 5d3d 2d3a 3dbd 9a9e 90be 13bc 35be
00000340: 4a5d 79bc bf9a 163f 4a2e e73e edbd 6d3e
00000350: a539 0ebf fd04 8e3f 7691 973d 4b6b cabf
00000360: 5199 dfbe 80ad d03e 72d7 cdbe 4769 c0be
00000370: f158 813f ef7b 713d ed11 a0be 25c2 54be
00000380: f486 4a3c 5ecf da3d ab5c 6f3c 5c56 9dbe
00000390: 2374 143e 468e 04bf 2ef2 22bf b9a4 103f
000003a0: b0d8 783e 1177 543d aa1b 01be dd7b 853e
000003b0: 828d 233f 3b93 10be dae8 a93e 07fb 8e3e
000003c0: ce8f 97be 7ee1 97be 5bfa 1cbf 48f2 103f
000003d0: d1c1 f43e d07e e8be a485 9c3e 5d91 523e
000003e0: a2ed 6ebf f825 02be ea07 01bd 57cc 01bf
000003f0: 2c6f 713e cd93 983e 7eed b13c ee64 39be

conv3.conv2d.bias f4 [32]
0.5658739 -0.5518592 -0.13935524 -1.4555596 -0.23481534 0.38228187 -0.09325081 -0.2572533
0.8781274 0.16541436 -0.949178 0.004775564 0.73203355 -0.012007425 0.1914426 0.58241415
0.38803276 0.5217616 -0.067776605 0.2531429 -0.19382508 0.527154 0.46511474 -0.39961463
0.1070308 0.027788134 0.50470096 0.8851346 0.5195605 0.6092844 0.5324317 -0.17891255
00000000: 1ddd 103f a546 0dbf 24b3 0ebe c74f babf
00000010: 6f73 70be 73ba c33e 48fa bebd b4b6 83be
00000020: f5cc 603f 6262 293e 54fd 72bf 567c 9c3b
00000030: 8d66 3b3f caba 44bc 8709 443e 1819 153f
00000040: 3bac c63e 2b92 053f 76ce 8abd f29b 813e
00000050: 157a 46be 91f3 063f 8523 ee3e 4a9a ccbe
00000060: f732 db3d f1a3 e33c 1534 013f 2e98 623f
00000070: eb01 053f 10fa 1b3f 724d 083f da34 37be

conv3.conv2d.weight f4 [32, 16, 3, 3]
-0.41314355 -0.5684944 -0.061780922 0.07167786 0.7505582 0.5835428 0.3343076 0.5601243
-0.2870654 0.66587764 0.6088244 0.7429383 -0.89044917 -0.22275104 -0.7933201 0.025622474
0.32484743 0.43434855 -0.39581546 -0.23799929 -0.28459838 -0.03913362 0.6535544 0.5547195
0.19995831 0.44588757 0.11037453 -0.072656065 -0.16323636 0.33835098 0.1948115 0.18832351
0.4957034 0.51846766 0.080715284 0.6112756 0.13172264 0.5666058 0.59042966 -0.24427529
0.5796196 0.526229 -0.33870104 0.7005421 0.51479673 -0.40492365 -0.10989929 -0.43036687
0.49852064 0.7105173 0.58721143 0.25310865 -0.11202762 0.09348498 -0.20024063 0.26952392
0.060817696 1.4373064 1.4287707 0.8073271 0.28188208 -0.08098167 -0.7857226 0.5613711
0.9279861 0.9622066 0.14719099 0.8837364 0.32099798 -0.57735574 -0.272191 -0.06427548
-0.96205574 -0.5029676 -0.76081234 0.19044012 0.6256547 0.5969232 -0.049288597 0.2327579
0.15038773 -0.9070866 -0.48997986 -0.6951471 0.63436264 0.7681912 0.67121387 0.3495896
0.030816788 0.56199515 0.02431163 -0.3685461 0.45790377 0.41853675 0.4365493 0.3021222
0.24813952 -0.34333545 -0.2081162 -0.25287428 -0.14546968 0.64402056 -0.0668239 0.14744906
0.16053666 0.16852595 0.45566982 -0.7300478 -0.6272432 0.63307375 -0.090917565 0.4688284
0.429761 0.5633552 -0.14865415 -0.2835079 0.0050821854 -0.46767744 -0.42088348 -0.38252485
-0.6712466 -0.62644523 -0.7052975 -0.82641155 -0.17227732 -0.460579 -0.99352664 -0.46514282
-0.25493023 0.08036167 0.83817196 1.0929034 -0.14050849 0.08992936 0.1535602 -0.18147387
-0.33323738 -0.4354204 -0.52046245 -0.6322203 -0.24835622 -0.09592925 0.49054462 0.5579683
0.06828216 0.38491324 -0.13311861 -0.28788698 0.75772387 0.5507558 -0.44479242 0.10260242
-0.21460432 -0.26012942 -0.33093613 -0.19898935 -0.6036477 -0.62430966 -0.7270627 -0.13396531
0.3967121 -0.27915752 1.0223581 1.2804048 -0.048537225 1.6993674 1.8308424 0.035690133
0.14392097 0.5606844 -0.5205689 0.022519195 0.14774309 -0.12642649 -0.020190561 0.56531936
0.9326011 -0.2719943 0.07284302 0.19693625 0.5009749 0.11459138 -0.81748885 0.5796286
0.16760059 -0.31181237 0.18724011 0.09887428 -0.35587773 0.28855515 0.061337553 0.038604107
0.50609714 0.15762593 -0.6435033 -0.16459206 0.086978495 0.17501055 0.597035 -0.62104225
-0.019788662 0.20443302 -0.8604284 -0.06982862 0.15670395 -0.89137566 -0.22072265 0.020318493
0.26436603 -0.25177094 -0.008707293 -0.08076157 -0.5132707 0.7838917 0.45110485 0.21493281
0.5727599 0.53504163 -0.8147372 1.2249238 1.6891207 -0.07024684 0.48052216 0.42749596
-0.59269613 0.8658803 0.6294274 -0.22182116 2.1688972 1.6657617 -0.15776215 0.986588
0.4672978 -0.47354326 0.29641032 -0.07307815 -0.17662951 0.5133529 0.28858954 -0.01913715
0.35963696 -0.048637953 0.11444342 0.8578965 1.0986311 0.119894035 0.18261525 1.72483
0.05413947 -0.75402606 0.26974306 -0.03777913 0.75151867 0.012464774 -0.23375191 0.16172287
00000000: 8d87 d3be d988 11bf fe0d 7dbd d8cb 923d
00000010: 9524 403f 1063 153f 5e2a ab3e 4e64 0f3f
00000020: 3cfa 92be f576 2a3f eadb 1b3f 3431 3e3f
00000030: 7af4 63bf d918 64be 0717 4bbf 39e6 d13c
00000040: 6752 a63e ef62 de3e 53a8 cabe 16b6 73be
00000050: e1b6 91be 934a 20bd 574f 273f 1902 0e3f
00000060: dfc1 4c3e 604b e43e 0b0c e23d b4cc 94bd
00000070: 6f27 27be 573c ad3e aa7c 473e e1d7 403e
00000080: d6cc fd3e 4cba 043f 0e4e a53d 8f7c 1c3f
00000090: 4de2 063e 140d 113f 6626 173f 4d23 7abe
000000a0: f361 143f f2b6 063f 396a adbe ba56 333f
000000b0: b8c9 033f 2752 cfbe e112 e1bd 0c59 dcbe
000000c0: 193e ff3e 76e4 353f 7d53 163f 7597 813e
000000d0: bd6e e5bd 0e75 bf3d e10b 4dbe 0aff 893e
000000e0: fa1b 793d a8f9 b73f f5e1 b63f fdac 4e3f
000000f0: d952 903e b8d9 a5bd 1e25 49bf 04b6 0f3f
00000100: 7f90 6d3f 2c53 763f 3cb9 163e 8c3c 623f
00000110: d959 a43e 96cd 13bf 9e5c 8bbe dda2 83bd
00000120: 4949 76bf 7cc2 00bf 99c4 42bf bc02 433e
00000130: e82a 203f f5cf 183f d7e2 49bd 1658 6e3e
00000140: 3eff 193e d436 68bf a4de fabe 29f5 31bf
00000150: 9765 223f 2ea8 443f acd4 2b3f 68fd b23e
00000160: 7d73 fc3c eade 0f3f 2f29 c73c 13b2 bcbe
00000170: 5d72 ea3e 734a d63e 6483 df3e c3af 9a3e
00000180: 4918 7e3e aac9 afbe 6a1c 55be bd78 81be
00000190: 01f6 14be 88de 243f f8da 88bd e3fc 163e
000001a0: b963 243e 1192 2c3e 8e4d e93e 6ae4 3abf
000001b0: 0393 20bf 1f11 223f fd32 babd 470a f03e
000001c0: a209 dc3e 0c38 103f cb38 18be f327 91be
000001d0: 7688 a63b 6b73 efbe 0a7e d7be 4cda c3be
000001e0: d1d6 2bbf b75e 20bf 618e 34bf b58f 53bf
000001f0: 7769 30be 03d1 ebbe c357 7ebf 3327 eebe
00000200: 3786 82be a994 a43d 7092 563f 42e4 8b3f
00000210: 75e1 0fbe e22c b83d e33e 1d3e 49d4 39be
00000220: 179e aabe 6cef debe 073d 05bf 31d9 21bf
00000230: 1851 7ebe 8e76 c4bd aa28 fb3e 03d7 0e3f
00000240: 84d7 8b3d 5913 c53e 3f50 08be ec65 93be
00000250: 31fa 413f 55fe 0c3f d5bb e3be 3821 d23d
00000260: 3cc1 5bbe af2f 85be 7670 a9be ddc3 4bbe
00000270: a888 1abf c2d2 1fbf c820 3abf 342e 09be
00000280: d91d cb3e bced 8ebe a1dc 823f 4ee4 a33f
00000290: f8ce 46bd df84 d93f 0b59 ea3f d12f 123d
000002a0: 0560 133e 0389 0f3f 0144 05bf 2d7a b83c
000002b0: f749 173e f275 01be ad66 a5bc c5b8 103f
000002c0: f2be 6e3f d642 8bbe b92e 953d a8a9 493e
000002d0: e43f 003f e3ae ea3d f346 51bf 8a62 143f
000002e0: 7d9f 2b3e dfa5 9fbe dfbb 3f3e 997e ca3d
000002f0: 9b35 b6be 80bd 933e 163d 7b3d 571f 1e3d
00000300: 958f 013f b168 213e a2bc 24bf d28a 28be
00000310: c821 b23d f735 333e 49d7 183f a0fc 1ebf
00000320: d51b a2bc e456 513e 0945 5cbf 4f02 8fbd
00000330: 0077 203e 3231 64bf 1e05 62be f872 a63c
00000340: fc5a 873e 1fe8 80be 09a9 0ebc 5266 a5bd
00000350: b565 03bf 20ad 483f 37f7 e63e 5917 5c3e
00000360: 65a0 123f 7df8 083f 9e92 50bf 4eca 9c3f
00000370: 1b35 d83f 93dd 8fbd 0007 f63e c0e0 da3e
00000380: efba 17bf 55aa 5d3f 2722 213f 1625 63be
00000390: 36cf 0a40 ae37 d53f 678c 21be 0891 7c3f
000003a0: a841 ef3e 4374 f2be 18c3 973e ffa9 95bd
000003b0: 5ede 34be 186b 033f 02c2 933e 83c5 9cbc
000003c0: 5622 b83e 9738 47bd 5061 ea3d 1b9f 5b3f
000003d0: f29f 8c3f 018b f53d 7eff 3a3e 3bc7 dc3f
000003e0: 59c1 5d3d da07 41bf c31b 8a3e 4abe 1abd
000003f0: 8763 403f 0d39 4c3c a95c 6fbe ae9a 253e

deconv1.conv2d.bias f4 [16]
0.46639675 -0.056142185 0.9516657 0.15154198 0.68410796 -0.31100544 -0.326202 -0.5814883
-0.6287433 0.8228098 0.2905481 -0.48802802 0.11738584 -0.2594474 -0.86142576 -0.36749417
00000000: 8ecb ee3e 59f5 65bd 5da0 733f d22d 1b3e
00000010: b321 2f3f 1b3c 9fbe f303 a7be 6bdc 14bf
00000020: 52f5 20bf aaa3 523f b8c2 943e cfde f9be
00000030: fd67 f03d 4ad6 84be 6686 5cbf 3228 bcbe

deconv1.conv2d.weight f4 [16, 32, 3, 3]
0.13107783 -1.2154589 -0.0013438408 -0.59853715 0.5739063 -0.36341116 -0.11659209 -0.28117406
1.3679763 0.2192566 -0.21747077 -0.0008945562 -0.23717767 1.1718032 -0.93303454 -0.15984225
-0.2868311 -0.0077142385 0.14314908 -0.09554032 -0.29523587 1.1067368 -0.6877041 0.47626784
-0.09109322 0.74108964 -0.14173059 0.14105389 -0.39670724 -0.16075057 0.43178573 -0.112732165
0.13675117 -0.18481947 -0.118241675 0.008826876 0.24564654 -0.46849534 0.661137 -0.30143148
0.566036 -0.060191292 0.06721889 -0.8565024 0.6694203 -0.4613679 0.3285606 -1.0813704
0.30690676 -0.18200676 -1.2167789 -0.26240692 -0.17961702 -0.06886441 -0.1213342 0.24881063
-0.4253127 -0.13415003 -0.04768768 0.7188183 0.1582548 0.15864855 -0.12520415 0.0035778142
0.21276599 0.16080903 0.4756431 -0.035416864 -0.14505692 -0.7772255 1.0071284 -0.36752826
0.07780911 0.13318492 0.35208386 0.1116874 0.2677607 0.14832877 0.7455576 -1.1211493
0.6863933 -0.17985539 0.3916216 0.122442454 -1.5185835 0.57945204 -0.052761983 -0.0432613
1.3632809 -1.2474693 0.0005743508 0.025835332 0.17007563 -0.2644556 -0.8253361 1.2711489
-0.13438591 0.56951225 -0.22932781 -0.14001025 -0.5173132 0.158034 -0.24110708 0.030356804
-0.68753195 0.13057607 0.4954752 -0.47984296 0.033127237 -0.45257872 -0.0075108176 -0.16203058
-0.6304315 0.9437444 -0.2490299 0.034289747 0.6193333 -0.118636735 0.4502715 -0.4553397
1.0243351 -1.1429833 0.59432334 -0.19706088 0.95549667 -0.7280122 0.42164308 -0.66993904
-0.08744885 1.0907141 -0.32643223 -0.2368023 0.39793953 -1.5494174 0.25243443 0.25056943
-0.58381337 0.575396 0.12475587 -0.29655042 0.3392789 -0.45063674 0.098987006 0.25732815
-0.044298187 0.64777905 0.18223651 0.5470649 -1.2402233 -0.027014546 -0.76750565 0.32153755
-0.30625367 0.25672665 -0.3537412 0.3676138 -0.46467137 0.5244457 -0.19698782 0.0131131215
0.043358713 0.9886028 0.37587857 -0.20249404 0.33337477 -0.43202552 -0.34641236 -0.52692765
0.7520228 -1.0895408 0.3513473 1.0557272 -0.040526174 0.51335037 0.9689572 0.12426719
-0.68346995 -0.40687877 0.14960104 -0.13914354 0.4645651 0.4647409 0.69411665 0.52504
-0.12594935 1.0130582 0.5947383 0.061312247 0.6206999 0.24702065 -0.049380574 -0.9626617
1.3035649 -1.0647798 -0.16104597 0.017082786 -1.2932575 0.83042234 -0.23998444 0.4953972
-0.20545278 -0.15633148 -0.19071463 -0.44852337 -0.21111497 -0.4147013 0.7630272 -0.36976567
0.25425762 -0.02314793 0.9046614 -1.244083 2.067301 -0.10934721 0.45258278 0.2633529
-0.35077304 0.739051 -0.26385063 0.3919641 0.10904237 -0.16934621 0.66018236 -0.13095737
0.09206088 -0.25465253 0.65697306 -0.57421887 -0.603557 0.23370376 -1.3463482 0.4754102
0.7811336 -0.7591506 -0.120228164 -0.06102029 0.29903015 -0.27122498 0.32962 0.33422938
0.64328253 -0.040150344 0.9466774 -0.18123005 0.014270486 0.26523376 -0.6064528 -0.43660557
0.7280262 -0.48104355 0.68738574 -0.06105046 -0.17646427 0.18688777 0.19033167 -0.36497617
00000000: 4439 063e 2894 9bbf d123 b0ba bb39 19bf
00000010: 86eb 123f 0711 babe d5c7 eebd 0cf6 8fbe
00000020: d919 af3f cd84 603e a8b0 5ebe a680 6aba
00000030: b4de 72be a6fd 953f 5adb 6ebf b0ad 23be
00000040: 87db 92be b9c7 fcbb ac95 123e a5aa c3bd
00000050: 2829 97be 8da9 8d3f 600d 30bf 61d9 f33e
00000060: 158f babd 0db8 3d3f d321 11be 6e70 103e
00000070: 361d cbbe cc9b 24be 0513 dd3e 1fe0 e6bd
00000080: 8008 0c3e 5141 3dbe b128 f2bd 9a9e 103c
00000090: c48a 7b3e 9fde efbe 4640 293f 3a55 9abe
000000a0: bce7 103f 258b 76bd 0faa 893d be43 5bbf
000000b0: 215f 2b3f 6a38 ecbe 1839 a83e 586a 8abf
000000c0: e222 9d3e fb5f 3abe 69bf 9bbf 335a 86be
000000d0: 86ed 37be c908 8dbd 117e f8bd 37c8 7e3e
000000e0: 96c2 d9be a05e 09be 2854 43bd 7a04 383f
000000f0: 8c0d 223e c474 223e 8435 00be c379 6a3b
00000100: 54df 593e 1fab 243e 7e87 f33e 4611 11bd
00000110: cd89 14be 40f8 46bf 95e9 803f aa2c bcbe
00000120: 625a 9f3d a161 083e 5644 b43e 5dbc e43d
00000130: ee17 893e 7fe3 173e dddc 3e3f d281 8fbf
00000140: 79b7 2f3f 032c 38be a082 c83e 1cc3 fa3d
00000150: f260 c2bf f856 143f f31c 58bd c332 31bd
00000160: fd7f ae3f 13ad 9fbf 0890 163a 9ea4 d33c
00000170: 4e28 2e3e b966 87be 3a49 53bf 02b5 a23f
00000180: 769c 09be 8ecb 113f e9d4 6abe d95e 0fbe
00000190: a36e 04bf aad3 213e c6e4 76be d5ae f83c
000001a0: 1802 30bf bcb5 053e edae fd3e faad f5be
000001b0: 6db0 073d 66b8 e7be 4e1d f6bb 58eb 25be
000001c0: f563 21bf 3c99 713f b201 7fbe 6873 0c3d
000001d0: a18c 1e3f d1f7 f2bd fc89 e63e 4922 e9be
000001e0: 6a1d 833f 474d 92bf 9325 183f 54ca 49be
000001f0: 6e9b 743f 025f 3abf 9ae1 d73e 2081 2bbf
00000200: 6218 b3bd 859c 8b3f 2022 a7be 4d7c 72be
00000210: bbbe cb3e 4f53 c6bf 163f 813e a34a 803e
00000220: cb74 15bf 274d 133f 0180 ff3d 75d5 97be
00000230: f7b5 ad3e dcb9 e6be b3b9 ca3d 84c0 833e
00000240: 0472 35bd d9d4 253f 359c 3a3e 720c 0c3f
00000250: a3bf 9ebf 9c4d ddbc 407b 44bf 92a0 a43e
00000260: 48cd 9cbe ad71 833e 911d b5be e037 bc3e
00000270: 68e9 edbe 1342 063f 2db7 49be 6bd8 563c
00000280: e898 313d 1315 7d3f 2873 c03e 995a 4fbe
00000290: 19b0 aa3e 7332 ddbe f65c b1be bbe4 06bf
000002a0: 9184 403f 1376 8bbf cbe3 b33e 1222 873f
000002b0: c6fe 25bd ee6a 033f 940d 783f cc7f fe3d
000002c0: e3f7 2ebf 6a52 d0be 0431 193e a57b 0ebe
000002d0: 7adb ed3e 85f2 ed3e a1b1 313f 0569 063f
000002e0: def8 00be e4ab 813f c540 183f 8d22 7b3d
000002f0: 30e6 1e3f fbf2 7c3e 4943 4abd ff70 76bf
00000300: 37db a63f b44a 88bf 3ce9 24be 33f1 8b3c
00000310: 7689 a5bf 8f96 543f 7bbe 75be b4a4 fd3e
00000320: 3762 52be 5c15 20be b24a 43be dba4 e5be
00000330: 862e 58be bb53 d4be c055 433f ed51 bdbe
00000340: 0e2e 823e baa0 bdbc e497 673f 1d3e 9fbf
00000350: a94e 0440 6ef1 dfbd eeb8 e73e 31d6 863e
00000360: 8698 b3be 7232 3d3f 6e17 87be 85af c83e
00000370: 9b51 df3d 1869 2dbe b601 293f b019 06be
00000380: 6a8a bc3d d161 82be 632f 283f 0200 13bf
00000390: b682 1abf 0a50 6f3e 2355 acbf f768 f33e
000003a0: 5ff8 473f b257 42bf 2f3a f6bd 69f0 79bd
000003b0: 7b1a 993e 00de 8abe f4c3 a83e 1d20 ab3e
000003c0: 2aae 243f b074 24bd 7359 723f 5f94 39be
000003d0: c2ce 693c b8cc 873e 7e40 1bbf c48a dfbe
000003e0: ed5f 3a3f 574b f6be 83f8 2f3f 0c10 7abd
000003f0: 0db3 34be 825f 3f3e 4ee6 423e 28de babe

deconv2.conv2d.bias f4 [8]
-0.060389604 -1.0194556 0.21565984 0.29387003 -0.8688146 -0.35428822 -0.52055466 0.22957544
00000000: 175b 77bd 857d 82bf efd5 5c3e 2276 963e
00000010: a26a 5ebf 4465 b5be 1243 05bf d315 6b3e

deconv2.conv2d.weight f4 [8, 16, 3, 3]
0.77733576 -1.1115282 0.4356406 0.9229229 -1.111298 0.26780495 -0.065584585 -0.18023632
-0.0014324024 0.14462098 0.32306528 -0.20008011 -0.066366814 0.25553128 -0.19655345 -0.0037257874
-0.9045075 0.34535828 -0.487192 -0.0867143 -0.45395708 -0.088081144 -0.52567124 -0.25309095
0.9713325 -0.37780762 -0.35001582 0.34283495 -0.3536006 0.051475137 -0.63222194 0.8599115
-0.593748 0.12743872 0.248552 0.13289814 -0.5942541 -0.4956933 0.068788394 0.63861334
0.083436236 -0.31351778 -0.13427925 -0.007981548 0.007575498 0.13822065 0.37602285 0.090169154
0.5484175 0.018765658 -0.1587974 -0.18975519 0.05837112 -0.52475727 -0.03946835 -1.280131
0.114289895 -1.2477351 0.45534086 -2.8298185 0.96888566 -0.5704012 -0.9611325 0.11632024
0.07703979 -0.39384824 -0.9701944 0.29498395 0.25170654 0.08151658 -0.2953814 0.060222697
0.68715274 -0.28172785 0.22769366 -1.5375879 2.214418 -0.42478564 -0.085300066 -0.050656646
-0.26264077 0.47596 -1.4210738 -0.03824848 -0.30203518 0.88130647 -0.74552065 -0.054520678
0.29634443 -0.07051558 0.42601964 -0.5542074 -1.3097245 -0.050377168 -0.6706712 0.5350852
0.62645763 -0.6191502 0.49813917 -0.075408734 1.4736055 0.32228568 -0.1391668 1.4801246
0.34365278 -0.30394903 -0.37623116 0.8044435 -0.7105701 -0.052924026 0.945465 -0.2979556
-2.0717335 0.6387187 -0.3823681 -0.90901107 -0.74868715 0.3544298 0.5206938 -0.7941975
0.018705994 -0.19708402 0.6821423 0.29129687 0.7251394 -0.4627241 0.34721723 0.11337537
-0.65549666 -0.5881127 0.5004497 -0.09852742 -0.04122486 -0.8990147 0.6971954 0.47817913
0.5947714 -1.6354995 0.98172057 1.2702355 -1.3277794 -0.8520441 -0.36124507 0.37670162
0.35329172 0.53810024 -1.0073272 0.5294693 0.28728077 -0.3407668 0.17350486 -0.6570457
0.14266881 0.018880902 -0.31453964 -0.04670972 0.4399478 -0.08228126 0.2997335 0.12757987
0.24895336 0.17325747 -0.72364104 -3.9064312 -4.6156306 -0.37426415 -2.1115346 -2.3973398
0.24693553 -1.6114289 0.552115 0.14867933 -0.17090008 -0.33506998 0.020106269 -1.1619517
1.0582408 -0.01371016 -0.6905822 0.5364617 -0.31604007 -0.02806786 -1.0293287 -0.3381342
0.18004799 0.5537071 0.682106 -0.6154292 -0.25600705 -0.366308 0.3703769 0.03698785
0.2573662 0.3144789 0.10769894 0.27901348 -0.20523293 0.032402825 0.3364409 0.18004243
0.3312132 0.081540495 1.7016644 2.3819778 -0.2013938 -0.037831113 -0.20753841 -0.30392084
-0.39500844 0.41794026 0.5731934 -0.04628611 -0.40680227 -0.54437184 -0.07125096 0.6191571
0.7391872 0.3399742 0.054866243 -0.06968071 -1.2830898 -0.5847012 -0.7070574 -0.5002406
0.47386286 -1.3576208 -0.23622376 -0.9390702 -2.0085523 0.55858535 -1.250759 0.04313275
-0.32889715 -0.32120687 0.15656763 0.2040139 -0.34078655 0.44981337 0.32168904 -0.36475107
0.4561328 0.074779876 -0.10759777 0.17286873 -0.12467951 0.5884745 -0.06417978 -0.32397544
-0.2114397 0.19312176 -0.001368839 -0.27270117 0.53253305 -2.4783206 -1.4682615 1.2179488
00000000: 7aff 463f 8e46 8ebf 490c df3e ad44 6c3f
00000010: 033f 8ebf bb1d 893e 3651 86bd df8f 38be
00000020: 73bf bbba 8617 143e d068 a53e cde1 4cbe
00000030: 53eb 87bd ffd4 823e 4f45 49be 572c 74bb
00000040: ce8d 67bf cdd2 b03e 3b71 f9be 4497 b1bd
00000050: 106d e8be e363 b4bd 6492 06bf 2395 81be
00000060: 3fa9 783f 0070 c1be 4635 b3be 1088 af3e
00000070: 230b b5be 98d7 523d 4cd9 21bf 2923 5c3f
00000080: deff 17bf 4c7f 023e 6a84 7e3e 7316 083e
00000090: 0921 18bf 83cb fdbe eee0 8c3d 2a7c 233f
000000a0: 9ee0 aa3d 6785 a0be 8080 09be 0ac5 02bc
000000b0: e23b f83b b789 0d3e 1186 c03e 9baa b83d
000000c0: 1765 0c3f 70ba 993c c99b 22be 2f4f 42be
000000d0: 8e16 6f3d 7e56 06bf 91a9 21bd 55db a3bf
000000e0: d210 ea3d c9b5 9fbf 7022 e93e bf1b 35c0
000000f0: e408 783f d005 12bf c80c 76bf 4e39 ee3d
00000100: 0ac7 9d3d 7aa6 c9be a95e 78bf 2308 973e
00000110: aedf 803e 2af2 a63d 3b3c 97be 13ac 763d
00000120: 3ee9 2f3f a23e 90be 8728 693e aecf c4bf
00000130: 06b9 0d40 817d d9be cdb1 aebd 587d 4fbd
00000140: da78 86be 07b1 f33e bfe5 b5bf 70aa 1cbd
00000150: 5ba4 9abe 4d9d 613f 71da 3ebf 1351 5fbd
00000160: 75ba 973e 796a 90bd 3f1f da3e 89e0 0dbf
00000170: 0da5 a7bf 4a58 4ebd 1cb1 2bbf 58fb 083f
00000180: 875f 203f a180 1ebf 190c ff3e e56f 9abd
00000190: 1b9f bc3f a102 a53e be81 0ebe b974 bd3f
000001a0: 42f3 af3e 359f 9bbe 5fa1 c0be 02f0 4d3f
000001b0: ece7 35bf ddc6 58bd ff09 723f a38d 98be
000001c0: 4897 04c0 1283 233f c0c5 c3be f3b4 68bf
000001d0: f6a9 3fbf d377 b53e 304c 053f 8750 4bbf
000001e0: 503d 993c 65d0 49be e1a0 2e3f dd24 953e
000001f0: bca2 393f 2cea ecbe 75c6 b13e 5931 e83d
00000200: a1ce 27bf 8e8e 16bf 791d 003f bec8 c9bd
00000210: 66db 28bd d425 66bf 667b 323f e5d3 f43e
00000220: f042 183f 0c58 d1bf 0a52 7b3f 1497 a23f
00000230: adf4 a9bf 901f 5abf 1df5 b8be 09df c03e
00000240: a7e2 b43e f0c0 093f 19f0 80bf 4d8b 073f
00000250: 7716 933e fc78 aebe 42ab 313e 2634 28bf
00000260: c617 123e 1fac 9a3c 570b a1be b152 3fbd
00000270: d740 e13e 1483 a8bd ab76 993e 4ca4 023e
00000280: a1ed 7e3e 686a 313e 8a40 39bf f802 7ac0
00000290: 3fb3 93c0 8d9f bfbe 6223 07c0 046e 19c0
000002a0: abdc 7c3e 4d43 cebf 6957 0d3f 653f 183e
000002b0: 6e00 2fbe 4b8e abbe e7b5 a43c d5ba 94bf
000002c0: 6f74 873f 94a0 60bc ffc9 30bf 8e55 093f
000002d0: 01d0 a1be 92ee e5bc 0bc1 83bf ed1f adbe
000002e0: 805e 383e c0bf 0d3f 809e 2e3f c58c 1dbf
000002f0: 5b13 83be b98c bbbe 0ba2 bd3e 9280 173d
00000300: 81c5 833e 6103 a13e 4391 dc3d dbda 8e3e
00000310: 9528 52be d3b8 043d fb41 ac3e 0b5d 383e
00000320: c794 a93e b4fe a63d 24d0 d93f 5372 1840
00000330: 2d3a 4ebe ccf4 1abd f384 54be 839b 9bbe
00000340: 8c3e cabe 44fc d53e cdbc 123f 8196 3dbd
00000350: 6348 d0be f45b 0bbf 06ec 91bd 1481 1e3f
00000360: 5f3b 3d3f 1911 ae3e 6dbb 603d c3b4 8ebd
00000370: 493c a4bf faae 15bf b701 35bf c50f 00bf
00000380: 279e f23e 85c6 adbf a4e4 71be e866 70bf
00000390: 1f8c 00c0 73ff 0e3f df18 a0bf f7ab 303d
000003a0: 3565 a8be 3a75 a4be 4453 203e 05e9 503e
000003b0: 937b aebe f04d e63e 6db4 a43e a7c0 babe
000003c0: 3d8a e93e 3126 993d 385c dcbd 8004 313e
000003d0: f957 ffbd 44a6 163f b070 83bd 1ce0 a5be
000003e0: a683 58be b6c1 453e 9d6a b3ba 7d9f 8bbe
000003f0: 1654 083f ce9c 1ec0 feef bbbf bfe5 9b3f

deconv3.conv2d.bias f4 [3]
-0.2228099 0.6855746 -0.06791909
00000000: 4728 64be d181 2f3f 2a19 8bbd

deconv3.conv2d.weight f4 [3, 8, 9, 9]
0.0029245475 0.26584247 -0.4144791 0.28655878 -0.31025326 0.14162165 0.41869146 -0.2836259
0.20907167 -0.11022177 -0.032302152 0.40837243 -0.1163092 0.023539504 0.4212894 -0.5605791
0.52897114 0.121675394 0.14116372 -0.07065415 0.112820454 0.26941386 -0.56149006 -0.33244878
0.56099445 -0.5861882 -0.030945152 -0.20130539 0.33978713 -0.57285583 0.16078125 0.5480943
-0.48826796 0.06455376 0.083150476 0.3442383 -0.25797474 0.6118799 0.29239497 -1.5269929
-0.14768158 2.0573876 -0.83554584 -0.28141588 -0.13906911 0.08950211 0.5397615 -0.33217835
-1.0407922 -1.0954397 0.017174413 -0.8651679 0.57815117 0.5070552 -0.25436297 0.082485005
0.5196235 -0.43489325 -0.1999598 -0.88745385 0.9314203 0.5915859 -0.34149802 -0.04205494
0.14221814 0.2783921 0.3780556 0.30006593 0.57834387 0.24920982 -0.5118244 0.09465561
-0.28322357 0.001816342 -0.36701944 0.0319874 0.12556149 -0.029841378 -0.30708247 -0.0015049467
0.053944025 0.22940499 -0.015510218 0.3273919 -0.17505914 -0.039994884 0.66124564 -0.033121556
-0.04352878 0.17306553 0.19595885 0.2483834 -0.18601397 0.8617208 0.0009304128 0.26981375
-0.35464758 0.54214835 -0.2970953 0.15900873 -0.22248124 -0.544854 -0.0760649 -0.24834242
0.33277026 -0.2014642 0.074464686 0.4697674 -0.2657164 -0.42437834 1.1140094 0.49452367
0.105948694 -0.39684287 0.50392485 0.3251993 -0.3482535 0.13231362 1.1254311 0.0733259
0.5264863 2.7566469 -0.47769448 -0.09725449 0.15882063 0.030675026 -0.18041353 0.92786014
0.28275564 1.8200115 2.9454753 -0.68844146 0.56664205 0.08767172 0.39376903 0.46397802
-0.46362108 -0.78922445 -1.6368403 0.21125926 -0.08223358 0.10554419 0.04517396 -0.24660236
0.18758649 -0.036821377 0.57209873 0.49407727 -0.22320005 0.54590684 -0.39719036 0.21478207
0.12979151 0.0050995518 0.2658217 -0.38504323 0.35005513 0.3038645 0.26528975 -0.13791227
0.3713444 -0.17391573 0.2340802 -0.044001028 0.1539324 -0.04396079 -0.4344681 0.2082691
-0.33519772 0.073675 0.029588744 -0.21432792 0.33865958 -0.13318785 0.0610942 0.45429936
-0.5085307 0.046596553 0.33402395 -0.46828282 0.042911094 -0.15443285 0.5405557 0.71040773
-0.5653383 1.5056056 -0.16882001 -0.61865824 0.7689315 0.26782918 0.15585479 -0.062270265
0.7604759 -1.4992394 0.1864924 0.27930012 0.75803256 -0.52858824 -0.11647641 -0.41995487
0.6405239 -0.31719217 -1.8541071 -0.8005129 0.28259382 -0.113290064 0.25204295 0.1283588
0.5757137 0.35907105 -0.5643341 -1.3016592 0.22420713 -0.16330875 0.77569944 -0.2647709
-0.31403413 -0.15081212 -0.30348808 1.2520751 0.19906712 0.96521026 -0.40173668 0.14672416
-0.20312405 0.27823374 0.17993617 -0.06826101 -0.26124218 -0.1927209 -0.12899517 0.593776
-0.12528479 0.23327659 -0.09776658 0.2017781 0.107972555 0.05913556 0.2799501 -0.13565965
0.2214491 -0.11700799 0.079053156 -0.05798257 0.19485241 -0.2657388 -0.36555624 -0.10719096
0.07751103 -0.24553959 -0.108153485 0.17162102 0.02392461 -0.53368723 0.0039122542 0.59107655
00000000: c4a9 3f3b 811c 883e 9b36 d4be d5b7 923e
00000010: 84d9 9ebe 4405 113e ba5e d63e 6a37 91be
00000020: e216 563e f4bb e1bd 434f 04bd 3116 d13e
00000030: 8533 eebd ebd5 c03c 3fb3 d73e 1d82 0fbf
00000040: a76a 073f f330 f93d 398d 103e 1fb3 90bd
00000050: 690e e73d 9df0 893e d0bd 0fbf ba36 aabe
00000060: 559d 0f3f 6e10 16bf b080 fdbc 0023 4ebe
00000070: 94f8 ad3e aea6 12bf d7a3 243e e84f 0c3f
00000080: 42fe f9be c334 843d cc4a aa3d 0140 b03e
00000090: 4415 84be 29a4 1c3f cbb4 953e 8174 c3bf
000000a0: d739 17be 3dac 0340 55e6 55bf be15 90be
000000b0: 2268 0ebe e24c b73d cf2d 0a3f 4813 aabe
000000c0: ae38 85bf 5e37 8cbf 5bb1 8c3c a57b 5dbf
000000d0: b701 143f 5fce 013f dd3b 82be e6ed a83d
000000e0: 0c06 053f 54aa debe 43c2 4cbe 2d30 63bf
000000f0: 9071 6e3f 2c72 173f d4d8 aebe cd41 2cbd
00000100: a2a1 113e 6989 8e3e 8190 c13e 3ea2 993e
00000110: 580e 143f dc30 7f3e ed06 03bf cdda c13d
00000120: ae02 91be 5312 ee3a f9e9 bbbe 3805 033d
00000130: 3193 003e e875 f4bc ea39 9dbe a241 c5ba
00000140: 69f4 5c3d 24e9 6a3e 921e 7ebc e99f a73e
00000150: b442 33be add1 23bd 6547 293f 78aa 07bd
00000160: 3c4b 32bd 1738 313e 70a9 483e 3858 7e3e
00000170: 727a 3ebe bc99 5c3f f2e6 733a 0725 8a3e
00000180: 5e94 b5be 3cca 0a3f e01c 98be 2fd3 223e
00000190: 1fd2 63be 8d7b 0bbf eac7 9bbd 7a4d 7ebe
000001a0: dd60 aa3e a24c 4ebe f180 983d 5a85 f03e
000001b0: fb0b 88be 1e48 d9be dc97 8e3f 3532 fd3e
000001c0: a1fb d83d fd2e cbbe 3801 013f 8680 a63e
000001d0: 484e b2be 397d 073e 200e 903f e42b 963d
000001e0: cec7 063f e76c 3040 5f94 f4be 5d2d c7bd
000001f0: e0a1 223e 314a fb3c 53be 38be 3e88 6d3f
00000200: 59c5 903e 23f6 e83f ab82 3c40 b33d 30bf
00000210: 740f 113f 3b8d b33d 189c c93e 878e ed3e
00000220: be5f edbe 9d0a 4abf fc83 d1bf 5954 583e
00000230: 146a a8bd 8d27 d83d 5508 393d 5485 7cbe
00000240: ac16 403e 03d2 16bd 1075 123f b2f7 fc3e
00000250: 8e8e 64be 8dc0 0b3f 895c cbbe d5ef 5b3e
00000260: 11e8 043e 241a a73b c819 883e 6324 c5be
00000270: 6d3a b33e 2194 9b3e 0fd4 873e e038 0dbe
00000280: da20 be3e f716 32be b8b2 6f3e 6c3a 34bd
00000290: 74a0 1d3e 3b10 34bd 9a72 debe 7f44 553e
000002a0: 099f abbe ebe2 963d 1864 f23c c778 5bbe
000002b0: ca64 ad3e 6562 08be e93d 7a3d ed99 e83e
000002c0: 112f 02bf 07dc 3e3d 3005 ab3e c4c2 efbe
000002d0: 8bc3 2f3d a523 1ebe dc61 0a3f 48dd 353f
000002e0: 03ba 10bf afb7 c03f 27df 2cbe 6360 1ebf
000002f0: b2d8 443f e820 893e 6698 1f3e 1b0f 7fbd
00000300: 8cae 423f 14e7 bfbf ddf7 3e3e 6d00 8f3e
00000310: 6c0e 423f 8f51 07bf 2f8b eebd 5304 d7be
00000320: 60f9 233f 0367 a2be 6253 edbf 6aee 4cbf
00000330: 23b0 903e 9f04 e8bd c60b 813e 7d70 033e
00000340: f961 133f 29d8 b73e 3378 10bf c59c a6bf
00000350: 8e96 653e 693a 27be 3d94 463f 0d90 87be
00000360: 15c9 a0be 7e6e 1abe ca62 9bbe ff43 a03f
00000370: 40d8 4b3e 0518 773f 6eb0 cdbe dc3e 163e
00000380: c0ff 4fbe a774 8e3e 3041 383e 6ecc 8bbd
00000390: 89c1 85be a158 45be 4f17 04be b401 183f
000003a0: a84a 00be 0fe0 6e3e d839 c8bd eb9e 4e3e
000003b0: b720 dd3d 2138 723d 9f55 8f3e 5dea 0abe
000003c0: 8ec3 623e e3a1 efbd 9fe6 a13d 227f 6dbd
000003d0: 6487 473e ea0e 88be 302a bbbe ef86 dbbd
000003e0: 1abe 9e3d bb6e 7bbe 937f ddbd 6cbd 2f3e
000003f0: 8bfd c33c ba9f 08bf 5e32 803b cb50 173f

in1.bias f4 [8]
3.5195384 1.3798673 4.27574 2.192562 2.3482614 3.7829547 2.7990735 1.6891099
00000000: 1e40 6140 7e9f b03f ddd2 8840 f052 0c40
00000010: ea49 1640 ee1b 7240 0524 3340 c134 d83f

in1.weight f4 [8]
0.019746743 0.07499317 -0.0015816601 0.08890873 0.19228892 0.4030134 0.1313624 0.07801356
00000000: ecc3 a13c 0596 993d b54f cfba c815 b63d
00000010: 63e7 443e c657 ce3e dd83 063e 93c5 9f3d

in2.bias f4 [16]
1.3988796 0.24559672 -0.10462039 -0.2691733 -0.12193273 0.24792443 1.7434279 -0.11112413
1.2555006 0.40684494 -0.041831445 -0.0120270355 -0.2968685 -0.5153379 0.29964662 0.9504094
00000000: 7d0e b33f b57d 7b3e 3743 d6bd 15d1 89be
00000010: deb7 f9bd e7df 7d3e a528 df3f 0c95 e3bd
00000020: 3eb4 a03f fb4d d03e 7357 2bbd 0b0d 45bc
00000030: 26ff 97be 2fed 03bf 486b 993e 084e 733f

in2.weight f4 [16]
0.22582462 0.35515556 -0.0020354223 0.80785507 0.62056327 0.8400284 -0.13744614 0.63389623
0.26835862 0.0738982 0.29378963 0.2648433 0.19220413 0.51456434 0.6028382 0.21859182
00000000: 923e 673e f3d6 b53e b864 05bb 97cf 4e3f
00000010: 3cdd 1e3f 1a0c 573f aebe 0cbe 0647 223f
00000020: 4d66 893e f157 973d 986b 963e 8b99 873e
00000030: 29d1 443e 7dba 033f 9b53 1a3f 89d6 5f3e

in3.bias f4 [32]
0.11543787 0.014634473 0.17730725 -0.3540637 -0.04048219 -0.07970779 0.043426827 -0.13317524
-0.109404095 -0.08685239 -0.50794995 -0.25339127 0.13662797 -0.31844315 -0.53517324 0.011359333
-0.53417104 -0.010343066 -0.22735511 0.1929457 -0.11064553 0.06638798 -0.17907321 0.022272602
0.076527536 -0.17687888 0.18163829 -0.10936381 -0.083487175 0.021106834 0.008514753 0.16094929
00000000: b16a ec3d 6ec5 6f3c 0890 353e d647 b5be
00000010: a7d0 25bd d63d a3bd 54e0 313d 175f 08be
00000020: 410f e0bd aadf b1bd 0209 02bf 80bc 81be
00000030: 34e8 0b3e fb0a a3be 1d01 09bf 7f1c 3a3c
00000040: 6fbf 08bf f775 29bc c7cf 68be 8f93 453e
00000050: 209a e2bd 6cf6 873d f85e 37be 0875 b63c
00000060: 78ba 9c3d bd1f 35be 63ff 393e 22fa dfbd
00000070: 53fb aabd 3de8 ac3c 7681 0b3c e4cf 243e

in3.weight f4 [32]
0.094931535 0.11936336 0.13101225 0.4175903 0.28449094 0.002428661 0.13352251 0.74496466
0.24673873 0.018576125 0.43889338 0.37153634 0.15255687 0.09599048 0.29128224 0.11481544
-0.0005733804 0.17051187 0.03691756 0.11399245 0.0027644283 0.10179979 0.40607628 0.12324597
0.08206999 0.22299649 0.109284036 0.3819959 -0.022935536 0.07588233 0.06224327 0.1416704
00000000: 776b c23d c774 f43d 1328 063e 65ce d53e
00000010: cca8 913e 2c2a 1f3b 20ba 083e 01b6 3e3f
00000020: 14a9 7c3e f52c 983c a2b6 e03e 033a be3e
00000030: de37 1c3e a896 c43d f222 953e 5b24 eb3d
00000040: e84e 16ba aa9a 2e3e de36 173d e074 e93d
00000050: 692b 353b 697c d03d 3be9 cf3e 6268 fc3d
00000060: 5014 a83d 3159 643e 4fd0 df3d f794 c33e
00000070: 4ee3 bbbc 3268 9b3d cdf2 7e3d 0c12 113e

in4.bias f4 [16]
-1.2960539 2.147039 -4.4516706 -4.4961247 -2.6916692 -2.1512527 5.9014707 -3.6529806
-1.3275504 -3.5163932 3.2730951 1.8404459 -1.8571332 1.6503286 0.52996105 1.4631522
00000000: 18e5 a5bf 1669 0940 1674 8ec0 41e0 8fc0
00000010: 4f44 2cc0 20ae 09c0 d9d8 bc40 6fca 69c0
00000020: 2ced a9bf 960c 61c0 647a 5140 bb93 eb3f
00000030: 8ab6 edbf f83d d33f 87ab 073f 9248 bb3f

in4.weight f4 [16]
3.9150908 1.7769102 3.8860378 6.0895576 6.0061655 5.7576523 0.9186286 6.872209
2.5312858 4.8265986 1.6073817 1.8048652 4.003981 1.569469 4.0940495 0.820485
00000000: d990 7a40 cb71 e33f d8b4 7840 a8dd c240
00000010: 8232 c040 b03e b840 3e2b 6b3f 23e9 db40
00000020: 9600 2240 7f73 9a40 afbe cd3f d305 e73f
00000030: 9d20 8040 5ce4 c83f 7402 8340 4e0b 523f

in5.bias f4 [8]
-0.44414416 -0.1420331 0.2290711 1.9179522 -0.09817563 0.65420395 0.23160614 -0.18139605
00000000: dd66 e3be 2071 11be 9d91 6a3e 757f f53f
00000010: 4e10 c9bd e979 273f 292a 6d3e e3bf 39be

in5.weight f4 [8]
2.701428 8.836681 3.0562265 1.7100244 3.5334156 4.690494 5.49156 8.376457
00000000: 32e4 2c40 0c63 0d41 3799 4340 14e2 da3f
00000010: 7b23 6240 8718 9640 dcba af40 f805 0641

resnets.0.conv1.conv2d.bias f4 [32]
-0.07624653 0.21985786 -0.73314285 0.272793 -0.4245121 -0.47288695 -1.0295173 0.5686606
-0.14691952 0.024589406 0.06643597 -0.16778713 0.09907277 -1.0254337 -0.5648008 -0.73271435
-0.029940132 0.55870485 0.9424999 0.07445096 0.041207105 -1.0594846 -0.6993395 -0.5567139
-0.07002946 -0.059460927 0.15608464 0.023578294 -1.1536039 0.04253913 0.27185354 0.7318976
00000000: 2427 9cbd 6b22 613e 40af 3bbf 86ab 8b3e
00000010: a659 d9be 3d1e f2be 39c7 83bf be93 113f
00000020: 1272 16be b96f c93c 950f 883d 64d0 2bbe
00000030: aae6 ca3d 6941 83bf c996 10bf 2b93 3bbf
00000040: 0245 f5bc 4807 0f3f ac47 713f bf79 983d
00000050: c8c8 283d 319d 87bf ea07 33bf cd84 0ebf
00000060: 9b6b 8fbd 4d8d 73bd a7d4 1f3e 4427 c13c
00000070: 4ba9 93bf 833d 2e3d 6330 8b3e a45d 3b3f

resnets.0.conv1.conv2d.weight f4 [32, 32, 3, 3]
-0.19922955 0.3899014 -0.46811262 -0.746525 0.21015769 0.079002485 -0.76614296 -0.33795422
0.4072838 -0.6023781 -1.4452983 2.5876934e-05 -0.3440262 -0.309369 0.27052405 -0.7119937
0.11181211 0.30736738 -0.124115534 -0.19458939 -0.06733081 -0.5720041 0.44805342 0.19567223
-0.32588178 0.4326345 -0.16253127 0.2081101 0.27490616 -0.28240407 0.30209583 0.3102966
-0.19200785 0.58146113 0.10146811 0.12942678 -0.93809414 0.013106061 -0.13782448 -0.72364837
0.62297875 -0.93901366 -0.19291171 0.42993978 -0.15085426 0.68464965 0.24475315 -0.110483244
0.7211916 -0.18288703 -0.3623153 0.6600194 -0.30563763 -0.042870726 -0.2619772 -0.45166218
0.14723131 -0.46361443 -0.6838772 0.23827977 0.009352552 -0.12066795 0.37150902 -0.04561946
-0.29134408 -0.17669578 0.60429794 -0.38775966 -0.23871903 -0.3229414 0.0636623 -0.027219735
-0.59700483 0.18120752 0.4296889 -0.64863306 0.07258624 -0.0028306802 -0.5647413 0.09828385
0.22888266 0.17321461 -0.15875125 0.011350755 0.07346808 -0.30717003 0.019418828 0.066962495
-0.30421427 0.098854125 0.5979975 0.68927747 -0.2867761 0.5359741 0.77679557 -0.46836844
1.0732441 0.74072134 0.052039508 0.55410975 0.16147774 -0.44616327 0.8142425 -0.20394859
-0.8337581 0.89867145 -0.20960128 -0.54415643 0.9172535 -1.1007164 -0.13691002 1.0447612
-1.6907057 -0.15128107 0.15534037 -1.2765546 0.061736293 0.059695467 -0.3068456 -0.10782885
0.12926158 -0.6427714 -0.16074716 0.35518825 -0.47775927 0.0005414565 0.73598504 0.80089897
-0.6374433 0.3210174 0.70297605 -0.42134535 0.2105115 0.43502858 -0.05396097 0.20405538
-0.18422236 0.3361683 0.39641625 -0.41069552 0.534076 -0.3933216 0.18885072 0.016556326
-0.07421431 -0.39481917 -0.09453632 -0.29609334 -0.55315435 -0.27616185 -0.5675639 -0.26709265
-0.34553316 -0.3763964 -0.0622463 -0.41574106 -0.21937385 0.032466 0.3422361 -0.21647176
-0.017216468 0.48961082 0.13161372 -0.2678216 0.04612 -0.2721672 -0.45756996 0.16913866
-0.5121609 -0.26878542 0.48189828 -0.032553874 0.048337243 -0.23236462 0.07665036 -0.37361997
-0.057203505 -0.023015257 -0.25276107 0.18010803 -0.20319931 -0.27769163 -0.017320964 -0.31570274
0.04196437 0.402172 -0.2646469 0.12595929 0.25330952 -0.117241256 -0.026578717 0.07350198
-0.054919627 -0.038302813 0.16181462 -0.0005335636 -0.2297085 0.2945219 0.45963758 0.19600663
-0.28229666 0.22902498 0.59134454 -0.43827677 0.6812479 0.14686427 -0.46707633 -1.1681104
0.7551573 0.37374586 -1.2722013 0.89872485 0.40411425 -0.8951116 0.3559496 0.4311176
-0.42669168 0.004240594 0.38169116 -0.5074066 0.92933047 0.13325952 -0.94474036 0.8032696
0.17510402 0.08234595 0.08382924 -0.34674934 0.16621548 -0.008827773 -0.22008368 0.28219497
-0.18272139 0.23552558 -0.8358985 0.1903934 0.63444424 -0.735465 0.58589476 0.24380125
-0.5334138 0.8110108 -0.035954244 -0.09994159 -0.6818345 -0.015747486 0.4665959 -1.5558362
0.17341526 -0.19759929 -0.91427827 0.21948901 -0.2626248 0.05225498 0.020667456 -0.75743955
00000000: d502 4cbe 28a1 c73e 75ac efbe 431c 3fbf
00000010: 9433 573e 0ecc a13d f221 44bf 5608 adbe
00000020: 8187 d03e 7335 1abf 89ff b8bf 4b12 d937
00000030: 3424 b0be 9d65 9ebe 2182 8a3e 3845 36bf
00000040: bffd e43d 425f 9d3e 4930 febd 7142 47be
00000050: bce4 89bd dc6e 12bf 4267 e53e 4d5e 483e
00000060: fad9 a6be 4582 dd3e 996e 26be d01a 553e
00000070: 80c0 8c3e 4497 90be 4eac 9a3e 32df 9e3e
00000080: b59d 44be a3da 143f 83ce cf3d 7488 043e
00000090: f026 70bf ceba 563c dc21 0dbe 0541 39bf
000000a0: 897b 1f3f 3363 70bf a68a 45be 1121 dc3e
000000b0: 8a79 1abe 3345 2f3f 92a0 7a3e 0a45 e2bd
000000c0: 03a0 383f bd46 3bbe 6481 b9be 08f7 283f
000000d0: 897c 9cbe 3799 2fbd e021 86be 4440 e7be
000000e0: cec3 163e df5e edbe 9412 2fbf 9dff 733e
000000f0: 723b 193c c220 f7bd 6e36 be3e 79db 3abd
00000100: 0d2b 95be bdef 34be 45b3 1a3f 6f88 c6be
00000110: c372 74be 9358 a5be 6161 823d ecfb debc
00000120: 4fd5 18bf 778e 393e 2f00 dc3e d10c 26bf
00000130: 18a8 943d ef82 39bb e392 10bf 0b49 c93d
00000140: 3760 6a3e 2c5f 313e b08f 22be 84f8 393c
00000150: 6f76 963d 6445 9dbe 3c14 9f3c a223 893d
00000160: f9c1 9bbe 0874 ca3d 5d16 193f 7d74 303f
00000170: 51d4 92be 9935 093f 13dc 463f fdcd efbe
00000180: 1060 893f ea9f 3d3f 6127 553d 23da 0d3f
00000190: 6c5a 253e 836f e4be 3272 503f e6d7 50be
000001a0: 2c71 55bf 550f 663f b8a1 56be d64d 0bbf
000001b0: 20d1 6a3f 46e4 8cbf 2432 0cbe bcba 853f
000001c0: 0b69 d8bf 6de9 1abe 8c11 1f3e 2466 a3bf
000001d0: 32df 7c3d 3c83 743d de1a 9dbe 5fd5 dcbd
000001e0: 265d 043e ab8c 24bf e79a 24be 3cdb b53e
000001f0: dd9c f4be 88f0 0d3a 8469 3c3f b707 4d3f
00000200: 7c2f 23bf 655c a43e 3df6 333f 94ba d7be
00000210: 5490 573e 11bc de3e 2e06 5dbd e5f3 503e
00000220: c9a4 3cbe 401e ac3e 12f7 ca3e af46 d2be
00000230: 34b9 083f 7361 c9be 1562 413e 22a1 873c
00000240: acfd 97bd bd25 cabe 429c c1bd 8c99 97be
00000250: 869b 0dbf 1665 8dbe de4b 11bf 5ec0 88be
00000260: b9e9 b0be 07b7 c0be faf5 7ebd 03dc d4be
00000270: 8aa3 60be 12fb 043d 9239 af3e c6aa 5dbe
00000280: 8d09 8dbc 45ae fa3e bfc5 063e ea1f 89be
00000290: 53e8 3c3d 8059 8bbe 9c46 eabe af32 2d3e
000002a0: fa1c 03bf 3e9e 89be 5fbb f63e 3657 05bd
000002b0: 46fd 453d fef0 6dbe ddfa 9c3d 1e4b bfbe
000002c0: 394e 6abd 7e8a bcbc e669 81be 3d6e 383e
000002d0: 7b13 50be 992d 8ebe b2e4 8dbc caa3 a1be
000002e0: d5e2 2b3d 7de9 cd3e cc7f 87be 79fb 003e
000002f0: c9b1 813e 2f1c f0bd 9cbb d9bc 3588 963d
00000300: 67f3 60bd 69e3 1cbd bbb2 253e d9de 0bba
00000310: b438 6bbe 93cb 963e 9e55 eb3e f6b5 483e
00000320: 3089 90be 8685 6a3e 5b62 173f d065 e0be
00000330: 4366 2e3f 9663 163e a124 efbe a484 95bf
00000340: fd51 413f 9e5b bf3e 7ed7 a2bf d512 663f
00000350: 10e8 ce3e 0926 65bf 073f b63e 72bb dc3e
00000360: 5577 dabe aef4 8a3b 066d c33e 66e5 01bf
00000370: 9ae8 6d3f 2f75 083e 81da 71bf 14a3 4d3f
00000380: 784e 333e fea4 a83d aaae ab3d 2189 b1be
00000390: 6434 2a3e 5da2 10bc 9e5d 61be dc7b 903e
000003a0: 511b 3bbe 9e2d 713e 72fd 55bf 7df6 423e
000003b0: f06a 223f 6f47 3cbf 33fd 153f 09a7 793e
000003c0: cf8d 08bf 679e 4f3f c244 13bd 2dae ccbd
000003d0: b58c 2ebf df00 81bc a8e5 ee3e a425 c7bf
000003e0: c593 313e 7857 4abe 240e 6abf bac1 603e
000003f0: c276 86be 5109 563d cc4e a93c 8fe7 41bf

resnets.0.conv2.conv2d.bias f4 [32]
-0.86943686 -0.21599466 0.34674552 0.33195394 0.6713893 -0.30478764 0.42906627 -0.42773646
0.9648448 0.016325522 0.32655573 -0.10991594 -0.042506356 0.16613588 -0.08851179 -0.32214776
-0.5560396 -0.4208548 -0.50881755 -0.7284776 -0.24531282 -0.4478264 0.2012253 0.12248396
0.08954207 -0.35764578 0.24447389 -0.22043243 -0.5021553 0.37079436 -0.9225676 0.14660609
00000000: 6a93 5ebf b42d 5dbe a188 b13e def5 a93e
00000010: 2be0 2b3f 200d 9cbe 93ae db3e 4600 dbbe
00000020: 1200 773f 1abd 853c 5032 a73e 9c1b e1bd
00000030: 251b 2ebd 861f 2a3e ab45 b5bd 8df0 a4be
00000040: 9c58 0ebf 487a d7be de41 02bf 827d 3abf
00000050: 4933 7bbe 8049 e5be 010e 4e3e dfd8 fa3d
00000060: d561 b73d 591d b7be 5d57 7a3e 0ab9 61be
00000070: 408d 00bf c2d8 bd3e 642d 6cbf e81f 163e
