Week_02/example_ONNX/vr.onnx (onnx, 443727 bytes, 64 tensors)

141 f4 [4]
0	0x3f800000	1.0
1	0x3f800000	1.0
2	0x40000000	2.0
3	0x40000000	2.0

142 f4 [4]
0	0x3f800000	1.0
1	0x3f800000	1.0
2	0x40000000	2.0
3	0x40000000	2.0

conv1.conv2d.bias f4 [8]
0	0x3d3863a5	0.045016903
1	0xbd0c0a3d	-0.03418945
2	0x3d962e9d	0.073331095
3	0x3b5a7997	0.0033336633
4	0xbd9d0ce2	-0.07668473
5	0x3dc3e22c	0.09564623
6	0xbce9942c	-0.028513037
7	0xbbaeddc8	-0.005336497

conv1.conv2d.weight f4 [8, 3, 9, 9]
0	0x3f2a1559	0.66438824
1	0x3e7e17ba	0.24813738
2	0xbe1ba0a2	-0.15197995
3	0xbe8f58fb	-0.27997574
4	0xbe18f667	-0.14937745
5	0xbe6c746e	-0.2309129
6	0xbe7472d0	-0.23871922
7	0xbeefe874	-0.46857035
8	0xbf1056ba	-0.56382334
9	0x3e88cd95	0.26719347
10	0x3e4fa8a5	0.20279177
11	0x3bce4059	0.006294292
12	0x3d9a6fec	0.07540879
13	0x3d0a340e	0.03374105
14	0xbd14b3a1	-0.03630412
15	0xbe72ea5a	-0.2372221
16	0xbe8d8a53	-0.27644596
17	0xbe7f3abc	-0.24924749
18	0x3e972b77	0.2952535
19	0x3f0f0901	0.55873114
20	0x3ee933ee	0.45547432
21	0x3f288ce7	0.6584
22	0x3f2094c7	0.62727016
23	0x3efb62f4	0.49098933
24	0x3e44ada4	0.19206864
25	0x3e2d4169	0.16919483
26	0x3e674de6	0.2258831
27	0x3d81d8f8	0.06340212
28	0xbda1d48c	-0.07901868
29	0x3a9885bf	0.0011636539
30	0x3eaecbe6	0.34139937
31	0x3eaff8f7	0.34369633
32	0x3eae8e3e	0.34092897
33	0x3e531220	0.20612383
34	0x3dcdd4a0	0.100503206
35	0x3e437b62	0.19090036
36	0xbe83319d	-0.2562379
37	0xbf68140e	-0.906556
38	0xbf72371b	-0.94615334
39	0xbec2e4ac	-0.38065088
40	0xbe7c2feb	-0.24627654
41	0xbe53b517	-0.20674549
42	0xbe0801d8	-0.13281953
43	0xbe57753e	-0.21040818
44	0xbda9c7a8	-0.082900345
45	0xbdf9117e	-0.121615395
46	0xbf571266	-0.8401245
47	0xbf6c471a	-0.9229599
48	0xbe570f0e	-0.21001837
49	0x3e977916	0.2958457
50	0x3ed35b19	0.4128044
51	0x3e7eeeae	0.24895737
52	0xbcb9d03d	-0.022682304
53	0xbd25ce9b	-0.040480237
54	0x3d3e9e38	0.046537608
55	0xbe4f6254	-0.20252353
56	0xbeeb3e8f	-0.45946166
57	0xbdde44ae	-0.10852943
58	0x3ef44753	0.47710666
59	0x3f42df8a	0.76122344
60	0x3ec065ba	0.3757761
61	0x3e832955	0.2561747
62	0x3dbd5e4b	0.092465006
63	0xbde0215c	-0.10943863
64	0xbeb00484	-0.34378445
65	0xbea3ce0f	-0.31993148
66	0xbdc5bd5f	-0.0965526
67	0x3d7273ca	0.059192456
68	0x3e3aea3e	0.18253419
69	0x3ea9c667	0.3315918
70	0x3ef52b84	0.47884762
71	0x3ec94c15	0.39315858
72	0xbe9e7420	-0.3094797
73	0xbec414ae	-0.38297027
74	0xbe33c599	-0.17555846
75	0x3dde8968	0.10866052
76	0x3d6af9eb	0.057367247
77	0xbe33cc05	-0.17558296
78	0xbcdac086	-0.02670313
79	0x3eb3b49d	0.35098734
80	0x3f2c3cc3	0.67280215
81	0x3ee723fa	0.45144635
82	0x3e6c627f	0.23084448
83	0x3d174153	0.036927532
84	0x3bb19aae	0.0054200506
85	0x3e1e7b84	0.15476805
86	0x3e52e4b4	0.20595056
87	0x3e306b45	0.1722842
88	0x3c558d94	0.013034243
89	0xbd644f2e	-0.055739574
90	0xbc68adc5	-0.014201586
91	0x3e387f5d	0.18017335
92	0x3db77492	0.08957781
93	0x3e15b96b	0.14621513
94	0x3dc3fe9f	0.095700495
95	0x3d8b40c8	0.067994654
96	0xbc44142b	-0.011967699
97	0xbcc9aaec	-0.024617635
98	0x3e20cc01	0.15702821
99	0xbdb6c482	-0.089242
100	0x3e3e27c2	0.18569854
101	0x3da74114	0.081667095
102	0x3e659783	0.22421078
103	0x3e620b70	0.22074676
104	0x3d041574	0.03224702
105	0xbd44af7e	-0.048018925
106	0xbdc6a163	-0.09698751
107	0x3e5b5438	0.21418846
108	0xbe6ff8a0	-0.23434687
109	0xbe2c22bb	-0.16810124
110	0xbdd9506f	-0.106110446
111	0x3e8aa18c	0.27076375
112	0x3e9641fb	0.29347214
113	0x3e7d64c9	0.24745478
114	0x3d00024d	0.031252194
115	0x3dafb8ce	0.085801706
116	0x3e3b4a3d	0.18290038
117	0xbe447016	-0.19183382
118	0xbf1bcc04	-0.6085818
119	0xbf260c87	-0.64862865
120	0xbcbda1a1	-0.02314836
121	0x3e1511ed	0.1455762
122	0x3e074d6b	0.13213126
123	0x3e342e18	0.17595708
124	0x3e133c9c	0.1437859
125	0x3e0ad3ea	0.13557401
126	0xbd399a15	-0.04531296
127	0xbf33fc83	-0.7030718
128	0xbf6770d0	-0.90406513
129	0xbdc8a777	-0.097975664
130	0x3edef7b0	0.43548346
131	0x3f232572	0.6372901
132	0x3ec49879	0.38397577
133	0x3e2b2a01	0.16715242
134	0x3e27271e	0.16323516
135	0x3d2b4e16	0.041822515
136	0xbeda31e1	-0.4261618
137	0xbf14ba89	-0.5809713
138	0xbecfd355	-0.4059092
139	0x3e99f856	0.30072278
140	0x3f10026c	0.56253695
141	0x3ea654d2	0.32486588
142	0x3dbec383	0.09314635
143	0x3c9c547e	0.019083258
144	0xbd8aa5a3	-0.06769874
145	0xbe8b8d3c	-0.2725619
146	0xbedbadee	-0.42906135
147	0xbec70293	-0.3886915
148	0xbe51f395	-0.20503075
149	0xbdbcf568	-0.09226495
150	0x3dc07b61	0.09398533
151	0x3e1a504c	0.15069693
152	0x3d82b10d	0.06381426
153	0xbe00fb5b	-0.12595885
154	0xbe74ad50	-0.23894238
155	0xbe199676	-0.14998803
156	0x3bd7daec	0.006587377
157	0xbe6b9e6d	-0.23009653
158	0xbeeed5e9	-0.46647575
159	0xbe89c557	-0.2690837
160	0x3cf1e222	0.029526774
161	0x3eae125b	0.3399838
162	0x3eb691c0	0.35658073
163	0x3e15e079	0.14636411
164	0x3d35711c	0.044297323
165	0x3b0ce19b	0.0021496776
166	0x3dfb760b	0.12278374
167	0x3e54f193	0.20795278
168	0x3e63b95e	0.2223868
169	0x3ccf0677	0.025271637
170	0x3c4f253a	0.012643153
171	0xbd9a5fef	-0.07537829
172	0x3b5ec2dd	0.003399066
173	0xbdd6613a	-0.10467763
174	0xbe220ab5	-0.15824397
175	0xbdb859d7	-0.090015106
176	0xbd9bbf30	-0.076048255
177	0x3b1b66e6	0.0023712455
178	0xbb96b3f7	-0.00459909
179	0x3d073773	0.033011865
180	0x3cad543d	0.021158332
181	0x3e3c8d90	0.18413377
182	0x3d22d52e	0.039754085
183	0x3e27f1a1	0.16400768
184	0xbd1ae54c	-0.03781633
185	0x3caf7057	0.021415872
186	0xbdebbe56	-0.11510913
187	0x3caed2e1	0.02134079
188	0x3ea57863	0.3231841
189	0xbd55a8e4	-0.05216302
190	0x3c41bbd3	0.011824566
191	0xbdcba099	-0.09942741
192	0x3ddbaa5f	0.10725855
193	0x3d41ded6	0.047331654
194	0xbdb5befa	-0.088743165
195	0xbdc5dfed	-0.09661851
196	0x3ce05da1	0.027388396
197	0x3dfbc200	0.12292862
198	0xbe99a154	-0.30005896
199	0xbf27c210	-0.6553049
200	0xbf2ba6b1	-0.67051226
201	0xbdaac973	-0.08339205
202	0xbe3e9c0c	-0.18614215
203	0xbde76b0e	-0.11299716
204	0xbe517ba3	-0.2045732
205	0xbe176f3e	-0.1478853
206	0xbe9396bd	-0.28825942
207	0xbd184550	-0.037175477
208	0xbefcd9ae	-0.49384826
209	0xbf198202	-0.59964
210	0xbdcf85fc	-0.10132977
211	0x3e93db0c	0.28878057
212	0x3ed1ded2	0.4099031
213	0x3d161035	0.03663655
214	0xbe93c5c7	-0.2886183
215	0xbeaffdaf	-0.34373233
216	0x3e4bff34	0.19921571
217	0xbc682e45	-0.014171188
218	0xbe84e560	-0.2595625
219	0xbe158901	-0.14603044
220	0x3e73d5f3	0.23812084
221	0x3f17fe26	0.59372175
222	0x3e969778	0.29412436
223	0xbc27d9e5	-0.010244821
224	0xbe74c644	-0.23903757
225	0x3e049de5	0.12950857
226	0xbc2997a2	-0.0103510935
227	0x3d476e01	0.048688892
228	0xbe1b502f	-0.15167306
229	0xbdc84809	-0.097793646
230	0x3e084d97	0.13310848
231	0x3ecae291	0.3962598
232	0x3ecf8967	0.40534517
233	0x3e1d1886	0.15341386
234	0xbdcabc16	-0.09899156
235	0xbe0a56fe	-0.13509747
236	0x3d8a71ec	0.0676001
237	0x3e6b48e3	0.22977023
238	0x3d7f7c49	0.062374387
239	0xbe88193e	-0.26581758
240	0xbd4c3db0	-0.049863517
241	0x3e876f8f	0.264523
242	0x3eca8119	0.3955162
243	0x3e1297f3	0.14315777
244	0xbd933f82	-0.071898475
245	0x3e4e1a9a	0.20127335
246	0x3e900865	0.28131405
247	0x3df0c6b2	0.11756648
248	0x3e8ae557	0.27128097
249	0x3ea8097a	0.3281973
250	0x3e20a78b	0.15688913
251	0x3dd6981c	0.10478231
252	0x3e85b8c4	0.26117527
253	0x3e5b9e0a	0.21447006
254	0x3e96eb99	0.29476622
255	0x3e894c70	0.2681613

conv2.conv2d.bias f4 [16]
0	0xbe65356f	-0.22383665
1	0xbdf00566	-0.1171978
2	0xbf17ca0f	-0.5929269
3	0xbe01262d	-0.12612219
4	0xbeb8135d	-0.35952273
5	0xbd4a0b36	-0.049327098
6	0xbe58b91b	-0.21164362
7	0xbe37ad17	-0.17937122
8	0xbe564786	-0.20925722
9	0xbb4e67c7	-0.0031494962
10	0xbca76ba5	-0.020437071
11	0xbeaf9362	-0.34292132
12	0xbe07d30a	-0.13264099
13	0xbdc16ac4	-0.09444192
14	0xbe5431ed	-0.2072217
15	0xbe0195c7	-0.12654792

conv2.conv2d.weight f4 [16, 8, 3, 3]
0	0xbe917e56	-0.284167
1	0xbf1becfa	-0.6090847
2	0xbf37381a	-0.7156998
3	0x3daf90f1	0.08572567
4	0x3db37cf4	0.08764067
5	0x3d293e19	0.041318987
6	0x3e94f20c	0.29090917
7	0x3eec7447	0.46182463
8	0x3f180947	0.59389156
9	0xbdfd7b81	-0.12377072
10	0x3ceb42f1	0.028718444
11	0x3de7a946	0.11311583
12	0x3dded131	0.10879744
13	0xbd41e40e	-0.04733663
14	0x3d8035f3	0.0626029
15	0xbd7b3abe	-0.061335318
16	0x3da2c431	0.07947577
17	0xbdd7c38b	-0.10535344
18	0x3f0df5d2	0.5545322
19	0x3f0b1e0e	0.54342735
20	0x3f095ebb	0.5366017
21	0x3d201be5	0.039089102
22	0x3e09c55b	0.13454191
23	0x3d4438b7	0.04790565
24	0xbf22547a	-0.6341015
25	0xbf1ba66c	-0.60800815
26	0xbf27ba74	-0.6551888
27	0x3e1465cb	0.14491956
28	0x3e125f35	0.14294131
29	0x3e6b9342	0.23005393
30	0x3d11cd63	0.035596263
31	0x3e183d39	0.14867105
32	0x3cc80cf0	0.024420232
33	0x3c8f98bd	0.017528886
34	0x3d285227	0.04109397
35	0xbdabac82	-0.08382513
36	0x3e2be367	0.16785966
37	0x3eb27755	0.34856668
38	0x3eb8562a	0.36003238
39	0xbe7365a6	-0.23769245
40	0x3daf63ae	0.08563934
41	0x3e399635	0.18123706
42	0xbe8e21d0	-0.27760172
43	0xbed8b54d	-0.42325822
44	0xbe4049ee	-0.18778202
45	0xbe82fc81	-0.2558327
46	0xbe9efa60	-0.31050396
47	0xbe4c8689	-0.19973196
48	0x3d6eb6a2	0.05827964
49	0x3d20b7bc	0.039237723
50	0x3d89454b	0.0670267
51	0x3e0a747d	0.13520999
52	0x3df3baf6	0.11900894
53	0x3db60691	0.08887971
54	0x3c50998f	0.012731924
55	0x3d86f04b	0.06588801
56	0xbd583c89	-0.052792106
57	0xbda6d8f9	-0.08146853
58	0xbc2cc00f	-0.010543837
59	0xbd0e218e	-0.03469997
60	0x3e2d4176	0.16919503
61	0xbe097e03	-0.13426976
62	0xbdf9b61d	-0.121929385
63	0x3eac5098	0.33655238
64	0x3e24d712	0.16097668
65	0x3e34d3e4	0.17658955
66	0xbe20272b	-0.15639941
67	0xbd39f9ef	-0.04540437
68	0xbccdab36	-0.025106054
69	0xbeb3c3f0	-0.35110426
70	0xbebbe46e	-0.36697716
71	0xbe059b2a	-0.13047472
72	0x3ec963ab	0.39333853
73	0x3f004c17	0.50116104
74	0x3d8f9926	0.070116326
75	0x3e8d9f0e	0.27660412
76	0x3d8741fb	0.06604382
77	0xbe3672d9	-0.17817248
78	0xbe136d1c	-0.1439709
79	0xbeccd5d2	-0.40006882
80	0xbec77dc3	-0.38963136
81	0x3e8ae660	0.27128887
82	0xbe6ef6c0	-0.23336315
83	0xbedfd5d2	-0.4371782
84	0xbeb2ac9a	-0.3489731
85	0xbe83f96d	-0.25776234
86	0x3e197feb	0.14990203
87	0xbe9bceff	-0.30431363
88	0x3dabaa76	0.08382122
89	0x3e71604e	0.23571894
90	0xbdf00106	-0.11718945
91	0xbed8d161	-0.42347243
92	0xbe3af351	-0.1825688
93	0x3df3c39e	0.119025454
94	0x3d997b99	0.074942775
95	0xbea4b196	-0.32166737
96	0x3eac5a4e	0.33662647
97	0x3ee3510c	0.4439777
98	0x3d93af7d	0.07211206
99	0x3e6bcc74	0.23027211
100	0x3d7a8229	0.061159287
101	0x3e31a406	0.17347726
102	0x3e2c7ec4	0.16845232
103	0xbd937892	-0.07200731
104	0xbdcb48d5	-0.09926001
105	0xbdf2602f	-0.11834752
106	0xbe5023a2	-0.20326093
107	0xbe4f1bfa	-0.20225516
108	0xbef7dce8	-0.48410726
109	0xbea58031	-0.32324365
110	0xbe1d5893	-0.1536582
111	0x3e2c2fc4	0.16815096
112	0x3e0f8d98	0.14018857
113	0xbeaf666a	-0.34257823
114	0x3f4f6006	0.81005895
115	0x3f3a75ae	0.72835815
116	0x3da6c516	0.0814306
117	0x3f1a26f2	0.60215676
118	0x3e09f0d4	0.13470775
119	0x3e1fc67b	0.15603058
120	0x3da8aa41	0.08235598
121	0x3e0eb43c	0.13935941
122	0x3e2c2327	0.16810285
123	0xbec454af	-0.38345858
124	0xbece0248	-0.40236115
125	0xbe6cfe8c	-0.23143977
126	0x3e9b41d8	0.30323672
127	0xbbccc0c4	-0.0062485654
128	0xbed4085f	-0.41412637
129	0x3deb09e4	0.11476496
130	0x3e9946e3	0.29936895
131	0x3cb8842a	0.022523958
132	0xbe9c8846	-0.30572718
133	0x3d515978	0.051110715
134	0xbd602eca	-0.05473212
135	0xbec2a0d7	-0.38013336
136	0xbe2985e0	-0.16554976
137	0xbef40290	-0.47658205
138	0x3f0ec6d7	0.55772156
139	0x3ec6aa26	0.38801688
140	0xbe72837e	-0.23682973
141	0x3f06b3de	0.52618206
142	0x3edc71ab	0.43055472
143	0xbe835106	-0.25647753
144	0xbf12dc2c	-0.57367206
145	0xbd548543	-0.0518849
146	0x3eda3ae4	0.42623055
147	0xbf278c9b	-0.6544892
148	0xbdcb6c9a	-0.099328235
149	0x3ecf9877	0.4054601
150	0xbe0e012c	-0.13867635
151	0xbdab1023	-0.08352687
152	0x3d68a35f	0.056796428
153	0x3ee2a462	0.4426604
154	0x3e5bcd9b	0.21465151
155	0x3c87b7ef	0.016567199
156	0x3f0ffd24	0.56245637
157	0x3f2c01d0	0.67190266
158	0x3dfa4b23	0.122213624
159	0xbedc386f	-0.43011805
160	0xbdb3ff4e	-0.0878893
161	0x3e7def14	0.24798232
162	0x3e562109	0.2091104
163	0xbb902bc3	-0.004399748
164	0xbd172d05	-0.03690817
165	0xbe467f64	-0.19384533
166	0x3d207830	0.03917712
167	0xbd28bc44	-0.04119517
168	0xbe451e7f	-0.19249915
169	0xbdba4602	-0.09095384
170	0x3e159e07	0.14611064
171	0xbd99d816	-0.07511918
172	0x3d5c4a88	0.053782016
173	0x3e7f3be7	0.24925195
174	0xbbcb5087	-0.006204668
175	0x3d5ea056	0.054352127
176	0x3d14da49	0.036340985
177	0xbe6641e6	-0.22486076
178	0xbe8e1afa	-0.27754956
179	0xbe2a4c93	-0.16630773
180	0xbf434494	-0.76276517
181	0xbf6e65c7	-0.9312405
182	0xbed3d8c2	-0.4137631
183	0xbebd20b1	-0.36939004
184	0xbf1ca650	-0.6119127
185	0xbf12e893	-0.5738613
186	0x3ea858f4	0.32880366
187	0x3eab72c8	0.3348601
188	0x3e8a5125	0.27015033
189	0x3e3ad6f0	0.18246055
190	0x3d965830	0.07341039
191	0x3dc3a1c2	0.09552337
192	0x3f1fb018	0.6237807
193	0x3e604235	0.21900256
194	0xbc0066fe	-0.007837055
195	0x3e1fce48	0.15606034
196	0x3e173ce6	0.14769325
197	0xbdcb5532	-0.09928359
198	0x3e89739d	0.26846018
199	0xbebc24da	-0.36746866
200	0xbe5399ef	-0.2066419
201	0x3ef3c1ce	0.476088
202	0xbe45eb9d	-0.1932816
203	0xbefbb0c3	-0.49158296
204	0x3df14abe	0.11781834
205	0x3ba8bcca	0.0051494585
206	0x3d9cef0f	0.07662784
207	0xbe6fc631	-0.23415448
208	0xbeeb9243	-0.46010026
209	0x3cec0154	0.028809227
210	0xbef7ee52	-0.4842401
211	0xbf573b33	-0.84074706
212	0xbef3fd0b	-0.47653994
213	0x3e5c72eb	0.21528213
214	0x3d9bdcbe	0.076104626
215	0x3e80ff72	0.2519489
216	0x3f236156	0.638204
217	0x3dac9511	0.0842687
218	0xbeb6a981	-0.35676196
219	0x3d11b5ea	0.035573877
220	0xbcf9703f	-0.03044903
221	0xbe6352a5	-0.22199495
222	0xbdfa5343	-0.12222912
223	0x3ddc4233	0.10754814
224	0x3d1d0e88	0.038343936
225	0xbc4b34b7	-0.012402705
226	0x3e117e85	0.1420842
227	0xbbb8b386	-0.0056366352
228	0x3e9a9fc3	0.30200014
229	0xbdb7f4ee	-0.089822635
230	0xbe51ecd3	-0.20500498
231	0x3ede4fcd	0.43420258
232	0xbe513522	-0.20430425
233	0xbe77e635	-0.24208911
234	0xbdf3eb96	-0.11910169
235	0xbe2833f8	-0.16426075
236	0x3e8bc869	0.27301338
237	0x3e3458e9	0.17612042
238	0xbf22257e	-0.6333846
239	0x3ea35edc	0.3190831
240	0x3de215ba	0.110393
241	0xbeb9ed7a	-0.36313993
242	0x3e629632	0.22127607
243	0xbe8cfa0c	-0.2753452
244	0x3c5b21ad	0.013374728
245	0xbcc9aa66	-0.024617385
246	0xbe7f5fd2	-0.24938896
247	0xbe83a85d	-0.25714388
248	0xbd3928e9	-0.04520503
249	0xbded05da	-0.11573382
250	0xbd880f6c	-0.066435665
251	0x3da55690	0.08073151
252	0xbc9d1940	-0.01917708
253	0xbdc924a1	-0.098214395
254	0x3e9bcb47	0.30428526
255	0xbd6feca2	-0.05857528

conv3.conv2d.bias f4 [32]
0	0x3e3a2f43	0.18182091
1	0x3e42ef57	0.19036613
2	0x3e0bab81	0.13639642
3	0x3dd18f51	0.102324136
4	0xbef2c9f6	-0.4741971
5	0x3e815f6f	0.25268123
6	0xbf139a24	-0.57657075
7	0x3e37b14d	0.17938729
8	0x3e9cc179	0.30616358
9	0x3ee164fd	0.4402236
10	0x3f2a1474	0.6643746
11	0x3d856314	0.06513038
12	0x3d5fdcc7	0.05465391
13	0xbcf394cc	-0.029734038
14	0xbf16ddd8	-0.58932257
15	0xbda59c99	-0.08086509
16	0xbea8409f	-0.32861802
17	0xbe695b22	-0.2278867
18	0x3f4782b9	0.7793384
19	0x3e5cf3c9	0.21577372
20	0x3f2dbc2e	0.67865264
21	0xbdac9ac2	-0.08427955
22	0xbd0bb384	-0.034106746
23	0x3e737933	0.23776703
24	0xbe76a152	-0.24084976
25	0xbf11dcd3	-0.56977576
26	0xbed797cb	-0.42107996
27	0x3e6d598b	0.23178689
28	0x3eb1809e	0.3466844
29	0x3db3a1b4	0.08771077
30	0xbef148b4	-0.4712578
31	0xbe80e8ca	-0.25177604

conv3.conv2d.weight f4 [32, 16, 3, 3]
0	0x3dbecd4d	0.09316502
1	0xbdb80e87	-0.08987146
2	0xbdba0e32	-0.09084739
3	0xbe6e208a	-0.232546
4	0xbe21ba43	-0.1579371
5	0x3d52c28c	0.051455066
6	0xbe208008	-0.1567384
7	0xbe1271b1	-0.14301182
8	0x3d26e6c2	0.04074741
9	0x3d8b15af	0.06791245
10	0x3e1b0eba	0.15142336
11	0xbe0e1cf2	-0.1387823
12	0x3cbb8a3e	0.022893067
13	0xbe8c0c61	-0.27353194
14	0xbec4a05b	-0.38403592
15	0xbea85446	-0.32876796
16	0xbe133eba	-0.14379397
17	0xbed28bc4	-0.41122258
18	0xbe7b52da	-0.24543324
19	0xbde98055	-0.114014305
20	0xbea10996	-0.31452626
21	0x3e3d230c	0.184704
22	0x3e589993	0.21152334
23	0x3ec12af0	0.3772807
24	0x3de6825e	0.11255334
25	0x3dbd6c35	0.092491545
26	0xbded6336	-0.115911886
27	0x3bba2ae4	0.0056813825
28	0xbc9c0408	-0.019044891
29	0x3e2abaa7	0.16672765
30	0x3e09c97b	0.13455765
31	0x3dc5030c	0.09619722
32	0xbdedbcda	-0.11608286
33	0x3dc96ea3	0.098355554
34	0xbeacd4c1	-0.33756068
35	0xbe3b95a9	-0.1831881
36	0x3e9890ee	0.29798073
37	0xbe6a42d0	-0.2287705
38	0x3e5d29a9	0.21597923
39	0x3e2fb447	0.17158614
40	0xbdc09c2d	-0.09404788
41	0x3deec8ed	0.11659417
42	0x3e946e7f	0.28990552
43	0xbf08e494	-0.5347378
44	0xbebfbe01	-0.3744965
45	0xbe6cdedf	-0.23131894
46	0x3ea6f134	0.32605898
47	0x3dd0ef3a	0.10201879
48	0x3e57b802	0.21066287
49	0x3ebb3a3b	0.36567864
50	0x3f2ef4b6	0.6834215
51	0x3e29cfef	0.16583227
52	0x3e874cd9	0.26425818
53	0x3d4ae357	0.049533214
54	0xbe04b77b	-0.12960617
55	0x3e65b5d3	0.22432642
56	0x3e8fee27	0.28111383
57	0x3cbb3c21	0.02285582
58	0xbe818063	-0.25293264
59	0xbe13ad46	-0.14421567
60	0x3ecf28a1	0.40460685
61	0xbdb65a9a	-0.089039996
62	0xbe06b478	-0.13154781
63	0x3e790ef9	0.24322118
64	0xbd35a685	-0.04434826
65	0x3e12dfa2	0.14343122
66	0xbe8a8e8f	-0.2706189
67	0xbdfe5513	-0.1241857
68	0xbe3d18a4	-0.18466431
69	0xbe259f62	-0.16174081
70	0xbead8138	-0.3388765
71	0x3c78879c	0.015169051
72	0xbebdc5c3	-0.37064943
73	0xbd95cd66	-0.07314567
74	0xbbc24c99	-0.0059295413
75	0xbf320f9a	-0.69555056
76	0xbe5da4d3	-0.21644907
77	0xbe847d28	-0.25876737
78	0xbf32dba3	-0.6986639
79	0xbed20d50	-0.41025782
80	0xbf4a7cd1	-0.79096705
81	0x3dbbb5a5	0.09165505
82	0x3de950cb	0.11392363
83	0x3e4de307	0.20106135
84	0x3c73e1f1	0.014885412
85	0xbddf6d09	-0.10909469
86	0xbd421464	-0.047382727
87	0x3c5bfda2	0.01342717
88	0x3d76b4c1	0.060230974
89	0x3d4e4860	0.05036199
90	0xbf3f9816	-0.7484144
91	0xbe0d5cd1	-0.13804938
92	0xbea5e77c	-0.3240317
93	0xbf2e5551	-0.6809893
94	0xbf517d31	-0.8183165
95	0xbd8f7f0d	-0.07006655
96	0x3e1482a1	0.14502956
97	0xbf581bfd	-0.84417707
98	0xbe73551c	-0.23762935
99	0x3ec3ad8b	0.3821834
100	0x3f392097	0.72315353
101	0x3f16bdeb	0.5888354
102	0x3f5ece9a	0.87034
103	0x3eed1541	0.46305278
104	0x3ceb4cb8	0.028723106
105	0x3f3434cd	0.7039307
106	0x3efb9896	0.4913985
107	0xbef65820	-0.4811411
108	0xbe1da56f	-0.15395139
109	0xbeff07f6	-0.4981076
110	0xbeb6b12b	-0.35682043
111	0x3e93ba8e	0.28853267
112	0xbe56453c	-0.20924848
113	0xbf00ea97	-0.50357956
114	0xbe27ce53	-0.163873
115	0xbf018d1b	-0.50605935
116	0xbf151298	-0.58231497
117	0x3dc3fdc6	0.09569888
118	0x3eab0fbe	0.33410448
119	0xbb641e62	-0.0034808149
120	0xbd8ca0d8	-0.06866616
121	0xbf39d006	-0.72583044
122	0xbf038a2f	-0.51382726
123	0xbdb8e7f0	-0.090286136
124	0xbeb2656a	-0.34842998
125	0xbda34aee	-0.07973276
126	0xbeb32a9f	-0.34993455
127	0x3f0ef15e	0.5583705
128	0x3f069b00	0.5258026
129	0x3f1a4465	0.6026061
130	0x3f977b27	1.1834458
131	0x3f88066c	1.062696
132	0x3f1bdada	0.60880816
133	0x3f1a6423	0.60309047
134	0x3ee3c352	0.44484955
135	0xbe6d45bd	-0.23171134
136	0xbeb9eb1d	-0.3631219
137	0xbe70d6cc	-0.23519439
138	0xbe1ae080	-0.15124702
139	0xbed93a54	-0.42427313
140	0x3d158105	0.036499996
141	0x3ee81a30	0.4533248
142	0x3d45ac59	0.048260067
143	0x3d3572b6	0.04429885
144	0x3cad6190	0.021164685
145	0x3b1bd7a8	0.0023779664
146	0xbc4b9f3d	-0.012428102
147	0x3e475fff	0.19470213
148	0x3e757607	0.23970805
149	0x3e8bdf93	0.2731901
150	0xbde7485f	-0.112931006
151	0xbd7613c9	-0.060077462
152	0xbce4c1af	-0.027924387
153	0xbe0fd1f3	-0.14044933
154	0x3e0cde0e	0.13756582
155	0xbd544505	-0.051823635
156	0x3e5dfa09	0.21677412
157	0x3ec97e55	0.39354196
158	0x3f263ada	0.6493355
159	0x3bc4d4d3	0.006006816
160	0x3e715cc3	0.23570542
161	0x3ec53827	0.38519403
162	0x3efb4bd2	0.49081284
163	0x3f24eaea	0.6442095
164	0x3eda4e01	0.42637637
165	0x3e863a79	0.26216486
166	0xbe181ba3	-0.14854293
167	0xbee1551c	-0.44010246
168	0x3e9dd2d4	0.30824912
169	0x3acc0e0c	0.0015568151
170	0xbe92d11a	-0.28675157
171	0xbf56f3ed	-0.8396595
172	0xbf28e837	-0.6597933
173	0xbe745200	-0.23859406
174	0xbf569643	-0.8382303
175	0xbf9938d8	-1.1970472
176	0xbe5dbdcb	-0.21654432
177	0xbf248bfb	-0.64276093
178	0xbf1a545e	-0.60284984
179	0x3e04c691	0.12966372
180	0x3e2b0134	0.16699678
181	0xbdd2f3cc	-0.10300407
182	0xbe142b6f	-0.14469694
183	0xbed45439	-0.41470507
184	0xbec19e42	-0.37816054
185	0xbe93532e	-0.287744
186	0xbdb47051	-0.08810485
187	0x3e7ac640	0.24489689
188	0x3f0723be	0.52788913
189	0x3ec35468	0.38150334
190	0x3e720576	0.23634896
191	0x3e89653e	0.26835054
192	0xbf0cc86a	-0.5499331
193	0xbef1984a	-0.471865
194	0xbb57d46d	-0.0032933012
195	0x3d845b60	0.06462741
196	0x3e67cfe6	0.226379
197	0x3f1e6c89	0.6188436
198	0xbe80d423	-0.25161847
199	0xbe52c878	-0.20584285
200	0x3da6104d	0.08108578
201	0xbdcad821	-0.099045046
202	0xbe166be6	-0.14689597
203	0xbdf6ce10	-0.12051022
204	0x39ba4710	0.0003552963
205	0xbd8a46cf	-0.06751787
206	0xbc9986c8	-0.018741027
207	0x3cbd9f46	0.023147237
208	0x3da96482	0.082711235
209	0xbec827e4	-0.39092934
210	0x3e3af3fc	0.18257135
211	0xbe1a0d58	-0.15044153
212	0xbdb7dd91	-0.08977807
213	0xbe856624	-0.2605449
214	0x3d6b7a5e	0.057489745
215	0xbdc3ccd3	-0.095605515
216	0x3ef73000	0.4827881
217	0x3f1fd26a	0.6243044
218	0x3e5d52b2	0.21613577
219	0xbeef1971	-0.46699098
220	0x3d91aafe	0.07112692
221	0xbe99faa0	-0.30074024
222	0xbe70f113	-0.23529463
223	0xbd212b1b	-0.03934775
224	0x3d2a061b	0.04150973
225	0x3c2e83ac	0.01065151
226	0x3e3884e5	0.18019445
227	0x3e84c8d4	0.2593447
228	0xbe431831	-0.19052197
229	0xbdc565eb	-0.0963858
230	0xbe67acd6	-0.22624525
231	0xbb8986a5	-0.004196959
232	0x3a420adb	0.000740213
233	0x3e2878c2	0.16452315
234	0xbeae65ec	-0.34062135
235	0xbf1d9710	-0.6155863
236	0xbe759842	-0.23983863
237	0xbf3f10a1	-0.7463475
238	0xbea70ca1	-0.32626823
239	0x3eb23a3b	0.3481005
240	0xbee0cfe4	-0.43908608
241	0x3d077b1e	0.033076398
242	0x3f37ebb2	0.7184402
243	0xbc38749c	-0.011258271
244	0x3ea9c3d5	0.3315722
245	0x3e107bad	0.14109679
246	0xbe9d3709	-0.3070605
247	0xbef38ed9	-0.47569922
248	0x3dc682c7	0.096929125
249	0xbe8351c9	-0.25648335
250	0xbe918bec	-0.28427064
251	0xbe51e523	-0.20497565
252	0x3e1f9198	0.15582883
253	0x3e9270c7	0.28601667
254	0x3bc9df11	0.006160625
255	0xbdc58e23	-0.09646251

deconv1.conv2d.bias f4 [16]
0	0xbe962279	-0.29323176
1	0xbc892c92	-0.016744886
2	0x3ebef284	0.372944
3	0x3cee26a7	0.029071165
4	0x3da9031d	0.08252547
5	0x3f2f7dc9	0.6855131
6	0xbe194b38	-0.149701
7	0x3e658b25	0.2241636
8	0x3e4b6661	0.19863273
9	0xbe8a977e	-0.27068704
10	0xbf0a61a6	-0.5405525
11	0x3ee4534f	0.4459481
12	0x3e82ad26	0.25522727
13	0x3daa9175	0.08328525
14	0x3d0f98a1	0.035057668
15	0xbe8cdc09	-0.27511624

deconv1.conv2d.weight f4 [16, 32, 3, 3]
0	0x3d84dd6d	0.06487546
1	0x3eb4eb26	0.35335654
2	0x3e7ee103	0.24890523
3	0xbe5c257b	-0.21498673
4	0xbe022c7b	-0.1271228
5	0xbecb301a	-0.39685136
6	0x3e014c46	0.12626752
7	0xbece50b3	-0.40295944
8	0xbbccaf1c	-0.0062464606
9	0xbeb8f3e3	-0.3612357
10	0xbf176773	-0.59142226
11	0xbeb30360	-0.34963512
12	0x3f01025b	0.5039422
13	0x3ebeff8a	0.37304336
14	0x3ebeda7c	0.37276065
15	0xbe9d9138	-0.30774856
16	0xbdb2fef4	-0.08740035
17	0xbd4804fa	-0.04883287
18	0x3d0f8161	0.035035495
19	0xbc192f34	-0.009349633
20	0xbd19ff0b	-0.037596744
21	0xbdabac99	-0.0838253
22	0x3ec6570d	0.3873829
23	0x3e949d68	0.2902634
24	0x3dd7e309	0.105413504
25	0xbda45951	-0.08024848
26	0xbd9fe4e4	-0.07807329
27	0xbe03473f	-0.12820147
28	0xbea6bdc8	-0.32566667
29	0x3c8a4e18	0.016882941
30	0x3e090375	0.13380225
31	0x3e85ed16	0.26157445
32	0xbcf9e100	-0.030502796
33	0xbe427548	-0.18990052
34	0x3e04200b	0.12902848
35	0x3d1110b0	0.035416305
36	0xbe6b70cd	-0.22992249
37	0xbe261eeb	-0.16222732
38	0xbe2d81e8	-0.16944087
39	0xbea097bf	-0.31365773
40	0x3e24cbd4	0.1609338
41	0x3ce8ca6a	0.028416831
42	0xbded5ccb	-0.115899645
43	0x3e233a84	0.1594029
44	0xbe093fde	-0.1340327
45	0xbd41c48c	-0.047306582
46	0x3ebb817b	0.36622223
47	0x3e2e24d3	0.17006235
48	0x3e195e93	0.14977483
49	0xbe2c8c35	-0.1685036
50	0xbef704c3	-0.4824582
51	0x3e2f76d3	0.17135172
52	0x3dc17678	0.09446424
53	0xbede27af	-0.4338965
54	0xbe568a67	-0.20951234
55	0x3e497335	0.19672854
56	0x3e0619f1	0.13095833
57	0xbc5db759	-0.013532483
58	0xbcecc81b	-0.028904011
59	0xbe054d7b	-0.13017838
60	0xbea845a1	-0.32865623
61	0xbe2b205b	-0.16711561
62	0xbde54593	-0.11194911
63	0x3e2bb1b0	0.16767001
64	0x3e4626a1	0.19350673
65	0xbd99fd0d	-0.07518969
66	0xbe57a9e9	-0.2106091
67	0xbdb77eb7	-0.08959716
68	0xbdb2174c	-0.0869585
69	0x3d8f3d5b	0.069941245
70	0xbf135721	-0.57554823
71	0xbeba38e5	-0.36371532
72	0xbe587093	-0.21136694
73	0x3e2535bf	0.16133784
74	0xbeee8a8a	-0.46590072
75	0x3e8cf95e	0.27534002
76	0x3e9b3c8f	0.3031964
77	0xbe6c31cf	-0.23065875
78	0xbe78ae8d	-0.24285336
79	0x3d916eb3	0.07101192
80	0xbf1e6f07	-0.61888164
81	0x3e23bc28	0.15989745
82	0xbb639f4b	-0.0034732397
83	0x3e73ca90	0.2380774
84	0xbe875000	-0.26428223
85	0xbc7dc924	-0.01548985
86	0xbed8a55d	-0.42313662
87	0x3edb902e	0.42883438
88	0xbdc993f7	-0.09842675
89	0xbe300c47	-0.17192183
90	0x3ddacd91	0.1068374
91	0x3e7d2c44	0.24723917
92	0x3e8c0607	0.27348348
93	0xbda61b58	-0.08110684
94	0xbe3b80f4	-0.1831091
95	0xbe8f19a7	-0.2794926
96	0xbcb5e48f	-0.022203712
97	0x3de07ab2	0.10960902
98	0x3c1f2583	0.009713533
99	0x3d86ece4	0.06588152
100	0xbdaff417	-0.08591478
101	0x3e5929cb	0.21207349
102	0x3e26221d	0.1622395
103	0x3d1bf48d	0.03807502
104	0xbda0beb8	-0.07848877
105	0xbd8c46b0	-0.0684942
106	0x3dbaf983	0.09129622
107	0xbe8eaee9	-0.2786782
108	0xbe52c994	-0.20584708
109	0xbdff2114	-0.12457481
110	0x3d83fe97	0.064450435
111	0x3ee29fc7	0.44262525
112	0xbe24bc0e	-0.16087362
113	0xbe08c2e9	-0.13355602
114	0xbd24ba25	-0.040216584
115	0xbe4ad0c0	-0.19806194
116	0xbde9b897	-0.11412161
117	0x3dd0534a	0.10172136
118	0xbe3f16f6	-0.18661103
119	0x3d7095eb	0.058736723
120	0x3e9bb2b0	0.30409765
121	0x3e75938d	0.23982067
122	0xbd37a7e1	-0.044837836
123	0xbe741355	-0.238355
124	0xbe1f1219	-0.15534247
125	0x3e674754	0.22585803
126	0x3d6ed2e8	0.058306605
127	0x3ee773fa	0.4520567
128	0xbe17dd24	-0.14830452
129	0x3d005436	0.03133031
130	0xbe93a4fa	-0.28836805
131	0x3d5a7c7f	0.053341385
132	0x3eaf57a5	0.34246555
133	0x3e12bd9f	0.14330147
134	0x3dac71f2	0.08420171
135	0xbe1f5709	-0.15560545
136	0x3e885bc8	0.26632524
137	0x3e05f4e0	0.13081694
138	0x3ea38b5a	0.31942254
139	0xbea707f3	-0.32623252
140	0xbe0c24d2	-0.13685921
141	0xbde28c95	-0.1106197
142	0x3f24f15e	0.644308
143	0xbe57c3d6	-0.21070799
144	0x3e366b59	0.17814387
145	0x3e335949	0.17514528
146	0xbd766d00	-0.060162544
147	0xbd825c72	-0.06365289
148	0xbcbb68d1	-0.022877129
149	0x3c8b2c9b	0.016989043
150	0xbd986bbb	-0.07442423
151	0xbcb9805c	-0.022644214
152	0xbcaf3025	-0.021385262
153	0x3e783365	0.24238355
154	0x3f0855a5	0.53255683
155	0x3ebf64c2	0.3738156
156	0xbefb24d9	-0.4905155
157	0xbed12718	-0.4085014
158	0xbf148556	-0.58015954
159	0x3e78be5d	0.24291368
160	0xbe440564	-0.19142681
161	0x3d17c141	0.037049536
162	0x3e824f6f	0.25451228
163	0x3e273ca5	0.16331728
164	0x3ea2d212	0.31800896
165	0xbc3528b7	-0.01105707
166	0x3def5b90	0.11687386
167	0x3d6b25dd	0.057409156
168	0x3e437568	0.19087756
169	0xbd2e67c9	-0.042579446
170	0x3ea26eea	0.31725246
171	0x3cc9d84c	0.024639271
172	0x3ddd9824	0.10820034
173	0x3e080eec	0.13286942
174	0x3ebbe6eb	0.36699614
175	0xbe41e82c	-0.18936223
176	0x3dd0fa2a	0.10203965
177	0xbea39527	-0.31949732
178	0x3e0648da	0.13113728
179	0x3c9d2789	0.01918389
180	0xbe256eae	-0.16155502
181	0xbe8fec51	-0.28109983
182	0xbec00969	-0.3750718
183	0x3eed8c2e	0.4639601
184	0x3f06dff8	0.526855
185	0x3e4f29b8	0.20230758
186	0xbcc7b546	-0.02437843
187	0x3c3186e7	0.010835386
188	0x3d71eea0	0.05906546
189	0xbcd5c962	-0.026097003
190	0xbd902a95	-0.07039372
191	0xbbb49204	-0.0055105705
192	0x3dbd0744	0.092299014
193	0xbe9d1211	-0.30677846
194	0x3d2b5b23	0.04183496
195	0xbef1cef7	-0.47228214
196	0x3f0c0358	0.546926
197	0x3e5d89b7	0.21634565
198	0xbf03d94d	-0.5150345
199	0xbe0183ea	-0.12647977
200	0xbe8aa606	-0.2707979
201	0x3f5bdb9a	0.8588196
202	0x3d9d83d2	0.07691158
203	0x3eea1177	0.4571645
204	0x3e8d5fb6	0.27612084
205	0xbdbf9914	-0.09355369
206	0x3e2c163e	0.1680536
207	0xbe02f6f2	-0.12789515
208	0x3ee5f9ce	0.44917148
209	0x3eb85fbb	0.36010537
210	0x3ef27bfb	0.47360215
211	0x3ae8bfbf	0.001775734
212	0xbeb6c659	-0.35698202
213	0xbe4f6646	-0.20253858
214	0x3e6d1c16	0.23155245
215	0x3e8493d8	0.25894046
216	0x3ee228aa	0.4417165
217	0x3ca24027	0.01980598
218	0x3e69db9e	0.22837684
219	0xbe78bf01	-0.24291612
220	0xbe7f45eb	-0.24929015
221	0x3cc3bbd0	0.023893267
222	0xbda8d465	-0.08243636
223	0x3e905f09	0.28197506
224	0xbcce1941	-0.025158526
225	0xbf04707b	-0.5173413
226	0xbf0a380d	-0.53991777
227	0xbeb25c67	-0.34836122
228	0x3f331b8c	0.6996391
229	0x3d96e9eb	0.07368835
230	0x3ec982cb	0.393576
231	0x3c813008	0.015769973
232	0x3f081a88	0.53165483
233	0x3ef3bf36	0.4760682
234	0xbed33065	-0.4124786
235	0xbdff5c49	-0.12468774
236	0xbe9dff68	-0.30858922
237	0x3dbb3ac3	0.09142067
238	0x3e27b61f	0.16378067
239	0x3ecb3dac	0.3969549
240	0x3e64f6d5	0.22359784
241	0x3ef1309f	0.47107407
242	0x3e8b10d2	0.2716127
243	0xbeede34a	-0.4646247
244	0xbe24f455	-0.1610883
245	0xbe254839	-0.16140832
246	0xbd6aa7a8	-0.057288796
247	0x3f0a8e75	0.5412362
248	0xbb6d48a4	-0.0036206627
249	0x3dc59a35	0.09648553
250	0x3ea538b9	0.32269838
251	0x3eec466a	0.46147472
252	0x3ed92a41	0.4241505
253	0x3edf0891	0.43561223
254	0x3e7ece61	0.24883415
255	0xbf204c26	-0.62616193

deconv2.conv2d.bias f4 [8]
0	0x3dd0a693	0.101880215
1	0x3ea82fe9	0.32849053
2	0x3cde584a	0.027141709
3	0x3f401c8b	0.75043553
4	0x3ede8c4f	0.43466422
5	0x3eb6d262	0.35707384
6	0xbcef866b	-0.0292389
7	0xbe817685	-0.25285736

deconv2.conv2d.weight f4 [8, 16, 3, 3]
0	0x3e39825b	0.18116133
1	0x3ea46bf8	0.32113624
2	0xbd499671	-0.049215738
3	0xbe991ec2	-0.2990628
4	0xbe961cb5	-0.29318777
5	0x3dbb450b	0.09144028
6	0x3e02f937	0.1279038
7	0x3d736938	0.059426516
8	0xbe129061	-0.14312889
9	0x3e5953e9	0.21223415
10	0xbeaab59b	-0.3334168
11	0xbdb57785	-0.08860687
12	0x3e23e5fe	0.16005704
13	0x3dd429ae	0.10359512
14	0xbe8443a1	-0.25832847
15	0x3c73a9f6	0.014872065
16	0xbd303323	-0.043017518
17	0x3dc75c22	0.0973437
18	0xbd294833	-0.04132862
19	0xbd21f144	-0.03953673
20	0xbe96ff67	-0.29491732
21	0x3d73683e	0.059425585
22	0x3d792404	0.060825363
23	0x3e0eac60	0.13932943
24	0x3d1808c0	0.03711772
25	0x3d8ea031	0.06964148
26	0xbe10ec82	-0.1415272
27	0xbe5cb2d9	-0.215526
28	0x3e007c5e	0.12547442
29	0xbd9957f9	-0.074874826
30	0x3ef62ae0	0.48079586
31	0xbd03f15a	-0.032212593
32	0xbf0928a5	-0.53577644
33	0xbe0cade4	-0.13738209
34	0x3ecbc42b	0.39798102
35	0xbe3b97b4	-0.18319589
36	0x3d73122f	0.059343513
37	0xbe49361d	-0.19649549
38	0xbf0d7e19	-0.55270535
39	0xbce160cd	-0.027511979
40	0x3e457a61	0.19284965
41	0xbe131f2f	-0.14367364
42	0xbe0c32de	-0.1369128
43	0x3e8a195b	0.2697247
44	0x3e33f19a	0.17572632
45	0x3e6a324c	0.22870749
46	0xbd4ba960	-0.049722075
47	0xbebcf745	-0.36907402
48	0xbe1c8fe3	-0.15289263
49	0x3e12a1d6	0.14319548
50	0x3dd5800a	0.10424812
51	0x3e123bbe	0.14280602
52	0x3e2eb2fd	0.17060466
53	0x3e7c709f	0.24652337
54	0xbc967dde	-0.018370565
55	0xbc3f6a0d	-0.011682999
56	0x3e2d5d22	0.16930059
57	0xbe86b919	-0.26313093
58	0x3e427517	0.18989979
59	0xbe321e57	-0.17394386
60	0xbeda5993	-0.42646465
61	0x3f127797	0.5721373
62	0xbe25db0c	-0.16196841
63	0x3eaf5b72	0.34249455
64	0x3de6acf7	0.11263459
65	0x3cd2ad62	0.025717441
66	0xbd962c57	-0.07332676
67	0x3e4a52c0	0.19758129
68	0x3e3d42fe	0.18482587
69	0x3e884041	0.26611522
70	0x3da98da5	0.0827897
71	0x3d5974bc	0.053089842
72	0x3ebbab1b	0.3665398
73	0x3e483557	0.19551598
74	0xbe1e0209	-0.15430464
75	0x3f44f224	0.7693198
76	0x3e5406a1	0.20705654
77	0x3e37a6f7	0.17934786
78	0xbe970beb	-0.2950128
79	0x3e6a2fb7	0.22869764
80	0xbd1e1ba6	-0.038600586
81	0xbdba141c	-0.09085867
82	0xbebd7ae5	-0.37007824
83	0xbe9ef0fa	-0.31043226
84	0x3e530b33	0.20609741
85	0x3f0d42e6	0.55180204
86	0x3e7490b8	0.23883331
87	0xbdfe9183	-0.12430098
88	0xbe0132a4	-0.12616974
89	0x3d00f702	0.031485565
90	0xbe42b89c	-0.19015735
91	0xbe1c0c30	-0.15239024
92	0x3ebfdf15	0.37474886
93	0x3de25b4b	0.11052569
94	0xbecb4a14	-0.39704955
95	0x3e32620b	0.17420213
96	0x3c95ed86	0.018301737
97	0xbdf65df7	-0.12029641
98	0xbeaacfdb	-0.33361706
99	0x3eb94ba4	0.36190522
100	0x3e6c00fe	0.23047253
101	0x3e646161	0.22302772
102	0xbdc226fe	-0.094800934
103	0xbe8a4f8a	-0.27013808
104	0xbeb7472c	-0.35796487
105	0xbe41bd46	-0.18919858
106	0xbe4aa35d	-0.1978888
107	0xbd876a39	-0.06612057
108	0xbd6bd040	-0.05757165
109	0xbd95cafa	-0.07314105
110	0x3dc9cbba	0.09853311
111	0xbe9c10f0	-0.30481672
112	0xbe938106	-0.28809375
113	0xbe674d72	-0.22588137
114	0xbe2eab83	-0.17057614
115	0x3da81ba1	0.08208395
116	0x3d80268e	0.06257354
117	0x3edb2528	0.42801785
118	0x3ec2067a	0.37895566
119	0xbe99a4b3	-0.30008468
120	0xbdb1a979	-0.086749025
121	0xbf352c60	-0.70770836
122	0xbe89a7fa	-0.26885968
123	0xbe5e3a1b	-0.21701853
124	0x3e398a24	0.18119103
125	0x3e81950e	0.25309032
126	0xbd89752a	-0.067118004
127	0xbe02ff10	-0.12792611
128	0xbdfeed72	-0.12447633
129	0xbe7eda81	-0.2488804
130	0x3e1a08ab	0.15042369
131	0xbdd25105	-0.102693595
132	0x3e20f516	0.15718493
133	0xbde5ead0	-0.112264276
134	0x3da4f66d	0.080548145
135	0x3e5eb920	0.21750307
136	0x3ec70c92	0.38876778
137	0x3c900015	0.017578164
138	0x3cc04064	0.023468204
139	0x3eddd72e	0.43328232
140	0x3f33269a	0.69980776
141	0xbe2c9af2	-0.16855982
142	0xbe9c929e	-0.3058061
143	0xbebc54a6	-0.36783332
144	0x3c066090	0.008201733
145	0x3dc0043e	0.09375809
146	0x3d933d8c	0.071894735
147	0xbe073180	-0.13202477
148	0xbd30e4c9	-0.043186937
149	0x3cce99ff	0.025219915
150	0x3e83b13d	0.2572116
151	0x3ce5bf91	0.028045448
152	0xbe42bb2e	-0.19016716
153	0x3ec1e971	0.37873414
154	0x3f1920bb	0.5981557
155	0x3d840219	0.064457126
156	0x3e16a223	0.14710288
157	0x3c8f10e5	0.01746411
158	0xbdf97344	-0.12180188
159	0x3d3f0123	0.046631943
160	0x3e702eee	0.23455402
161	0x3ec7dbdf	0.39034936
162	0x3ddf2019	0.10894794
163	0x3e8868e2	0.2664252
164	0x3d10ebb4	0.035381034
165	0xbd926c29	-0.07149536
166	0xbda43015	-0.080169834
167	0xbb92d6ff	-0.004481196
168	0x3e9e2c5a	0.30893213
169	0x3e95b3da	0.29238778
170	0x3e69fa6f	0.22849439
171	0xbe8c6721	-0.2742243
172	0x3e44cb14	0.19218093
173	0xbd8a68ac	-0.06758246
174	0xbd32605a	-0.04354892
175	0xbeae35e6	-0.34025496
176	0xbd9321be	-0.0718417
177	0x3eb11f37	0.34594128
178	0x3e3661ac	0.17810696
179	0xbe62abd0	-0.22135854
180	0xbdd449b9	-0.10365624
181	0x3e2c5867	0.16830598
182	0x3c8fe6d3	0.01756612
183	0xbe659321	-0.22419406
184	0x3e1a8f3d	0.15093704
185	0x3f4066dc	0.7515695
186	0xbbbc3655	-0.0057437816
187	0xbe6e4603	-0.23268895
188	0xbc5999f9	-0.013281339
189	0xbdd6dfe2	-0.10491921
190	0xbeb65aad	-0.35616055
191	0x3e0fec20	0.14054918
192	0xbda6b0f9	-0.081392236
193	0xbad62b07	-0.0016339727
194	0x3df6b1c4	0.12045625
195	0x3c103781	0.008802296
196	0x3e19a36e	0.1500375
197	0xbde91f3b	-0.1138291
198	0xbd160815	-0.0366288
199	0x3e4fcf78	0.20293987
200	0xbd018d51	-0.03162891
201	0xbe98e9f1	-0.29865983
202	0x3e83153a	0.25602132
203	0xbe343b49	-0.1760074
204	0xbe0fc1ee	-0.14038822
205	0x3ec6c7c2	0.38824278
206	0xbe825212	-0.2545324
207	0x3d4042d0	0.046938717
208	0x3dcec7a2	0.10096671
209	0x3e7c8955	0.24661763
210	0x3cf4bb21	0.029874386
211	0x3ea88fc6	0.3292219
212	0x3e022568	0.12709582
213	0x3c86ed63	0.016470617
214	0x3e4a20db	0.19739096
215	0x3e98831d	0.29787531
216	0x3dd69113	0.104768895
217	0x3e59b324	0.21259743
218	0xbcadd527	-0.021219803
219	0x3d36e128	0.04464832
220	0x3c253ea3	0.010085735
221	0xbec480a7	-0.38379404
222	0x3d1f186a	0.038841642
223	0x3e3e672f	0.18594049
224	0xbdb93917	-0.09044092
225	0x39fb41bb	0.00047923424
226	0xbd77afee	-0.060470514
227	0xbd13268d	-0.035925437
228	0x3de287b2	0.11061038
229	0xbdd2b040	-0.10287523
230	0x3dd7c5dd	0.10535786
231	0xbe4a69d2	-0.1976693
232	0xbda4e940	-0.080523014
233	0x3e6652fc	0.22492594
234	0x3dc86af0	0.09786022
235	0x3f682c1e	0.9069232
236	0xbf564af0	-0.83708096
237	0xbe42f45e	-0.19038531
238	0x3e096817	0.13418613
239	0x3f051da6	0.51998365
240	0x3ea554e0	0.32291317
241	0xbf1ab94b	-0.60438985
242	0x3eb0de2f	0.34544513
243	0x3e2499d6	0.16074309
244	0x3e94b492	0.29044014
245	0x3e95e1db	0.29273877
246	0xbef83e46	-0.4848501
247	0xbe31b3fe	-0.17353818
248	0xbea9308a	-0.33044845
249	0x3dea9b9f	0.114554636
250	0xbe815b2b	-0.25264868
251	0xbcd4f691	-0.025996478
252	0xbdb37b62	-0.08763768
253	0x3e60ba2f	0.21946023
254	0x3e894052	0.26806885
255	0x3dd59ee8	0.104306996

deconv3.conv2d.bias f4 [3]
0	0xbd646184	-0.05575706
1	0x3edc57fe	0.43035883
2	0xbd61748c	-0.05504279

deconv3.conv2d.weight f4 [3, 8, 9, 9]
0	0xbe682b65	-0.22672804
1	0x3e591eff	0.2120323
2	0x3da13566	0.07871513
3	0xbdc971fb	-0.09836193
4	0x3e5a78f7	0.21335207
5	0x3bd65b4c	0.006541645
6	0xbe16adf1	-0.14714791
7	0xbd8353be	-0.06412457
8	0xbd92b03c	-0.0716252
9	0x3ce2a348	0.02766575
10	0x3c548bfb	0.012972827
11	0x3dacc747	0.08436447
12	0x3e089388	0.13337529
13	0x3c4dd066	0.012561893
14	0x3ed9e78c	0.4255947
15	0x3e533155	0.20624287
16	0xbe151c24	-0.14561516
17	0x3d3fa811	0.04679114
18	0xbda65ee4	-0.08123568
19	0x3cb232d2	0.021752749
20	0xbe0c1049	-0.13678087
21	0x3d212118	0.0393382
22	0x3e95e9d0	0.29279947
23	0xbd7061ed	-0.05868714
24	0xbdf38f3f	-0.118925564
25	0xbdff39dd	-0.124622084
26	0x3e14d91e	0.14535949
27	0xbe62cfa0	-0.22149515
28	0x3e2d7e4c	0.1694271
29	0x3d87d273	0.06631937
30	0xbe806fec	-0.2508539
31	0xbe7d4941	-0.24734975
32	0xbe5ce082	-0.21570018
33	0xbe67eb46	-0.22648343
34	0xbddee319	-0.10883159
35	0x3e4a8727	0.19778119
36	0x3e97f1e1	0.29676726
37	0x3cac7b52	0.021054897
38	0x3e532bcd	0.20622177
39	0xbe1a907a	-0.15094176
40	0xbf1ab5da	-0.60433733
41	0xbe4c9134	-0.19977266
42	0x3ebe7469	0.3719819
43	0x3ebded71	0.37095216
44	0xbeeaa213	-0.45826778
45	0xbd259b14	-0.040431097
46	0x3f030578	0.5118022
47	0x3f094a11	0.5362864
48	0x3f6d215b	0.9262902
49	0x3f835ecb	1.0263304
50	0x3f42c2f2	0.7607871
51	0x3f64750d	0.89241105
52	0x3f24b623	0.6434042
53	0xbf2592c0	-0.6467705
54	0xbe403e4c	-0.18773764
55	0xbe0da3a2	-0.13831952
56	0xbd84d830	-0.06486547
57	0xbe851dd7	-0.25999328
58	0x3e8ee966	0.27912444
59	0x3e9da4cd	0.30789796
60	0xbdd1be35	-0.10241357
61	0x3e44e775	0.19228919
62	0xbee953a8	-0.45571637
63	0x3dc221dc	0.094791144
64	0x3d99f765	0.0751789
65	0xbd992aa7	-0.074788384
66	0xbd205a4e	-0.03914862
67	0x3d2649ed	0.040597845
68	0x3e73c750	0.238065
69	0x3d184cb1	0.037182514
70	0x3d2f4475	0.042789895
71	0x3df7021c	0.12060949
72	0xbc834397	-0.01602344
73	0x3e5a680d	0.21328755
74	0xbd4a0b38	-0.049327105
75	0x3d1d8746	0.038459085
76	0xbe1bb548	-0.15205872
77	0xbd3f2585	-0.04666664
78	0x3e5212d5	0.20514996
79	0xbe09dfcf	-0.13464282
80	0xbb340a88	-0.0027472097
81	0xbe4817a4	-0.19540268
82	0xbd911386	-0.07083802
83	0x3bcc8995	0.006241987
84	0xbe3dff0c	-0.18554324
85	0xbe802e48	-0.2503531
86	0xbe1524e5	-0.14564855
87	0xbeb5f788	-0.35540414
88	0xbcabf10a	-0.02098896
89	0xbe91ff26	-0.28514975
90	0xbe6518e7	-0.2237278
91	0x3da25b05	0.07927517
92	0x3d3bb661	0.045828227
93	0x3ecd6339	0.40114763
94	0xbe19810c	-0.14990634
95	0xbe6d5d8d	-0.23180218
96	0xbdd7e15e	-0.10541032
97	0x3efd94e8	0.4952767
98	0x3db81b89	0.08989627
99	0xbf16f0d1	-0.58961207
100	0x3d808b67	0.06276589
101	0xbe12cff3	-0.14337139
102	0xbe4ea40a	-0.20179763
103	0xbf00b566	-0.5027679
104	0xbe5b49c9	-0.21414866
105	0xbd73b623	-0.05949987
106	0xbe9b6047	-0.3034689
107	0xbe9a123e	-0.30092043
108	0xbe8e8909	-0.27838925
109	0xbda54d39	-0.0807137
110	0xbea0ce9e	-0.31407636
111	0xbef44c28	-0.47714353
112	0xbf190f06	-0.5978855
113	0xbe5e6634	-0.21718675
114	0xbf139504	-0.57649255
115	0x3e077936	0.13229832
116	0xbda21c53	-0.07915559
117	0xbdd68668	-0.10474855
118	0x3ea01762	0.3126784
119	0xbee7d94d	-0.45282975
120	0xbe9f984f	-0.3117089
121	0xbef181c6	-0.47169322
122	0xbf8bf6d1	-1.0934697
123	0xbf0fade2	-0.561247
124	0x3efa6512	0.48905236
125	0x3e60f186	0.21967134
126	0xbe6aa482	-0.22914317
127	0x3dad24ea	0.084543064
128	0xbd6a0b0a	-0.057139434
129	0xbe3ed39e	-0.18635413
130	0xbe66d2ea	-0.22541395
131	0xbed358c7	-0.4127867
132	0xbea9cb1b	-0.3316277
133	0x3f60a4ad	0.87751275
134	0x3e80c1c4	0.2514783
135	0xbd851fd5	-0.06500212
136	0xbe162cc2	-0.14665511
137	0xbe0867ca	-0.13320842
138	0xbef2de70	-0.4743533
139	0xbef3c85d	-0.47613803
140	0xbe812427	-0.25222895
141	0xbf3fcc26	-0.7492088
142	0x3ed37645	0.4130117
143	0x3d224a84	0.039621845
144	0xbedd5fa6	-0.43237036
145	0xbdacc7a1	-0.08436514
146	0xbdca7c1c	-0.09886953
147	0x3e79bd74	0.24388677
148	0x3e9647fd	0.29351798
149	0x3cd9da9a	0.026593495
150	0xbe374e80	-0.17901039
151	0x3e1472e1	0.14496948
152	0xbe8c16f5	-0.27361265
153	0xbda41d4e	-0.08013402
154	0xbdc74a95	-0.09731022
155	0xbe926dfb	-0.28599533
156	0xbd444e9e	-0.047926538
157	0x3de6eed7	0.11276024
158	0xbdad8500	-0.08472633
159	0xbefc9086	-0.49329013
160	0xbdb8775c	-0.09007141
161	0xbdd879a7	-0.10570078
162	0x3dcba4d1	0.099435456
163	0xbe08d754	-0.13363391
164	0xbbf50c2e	-0.0074782586
165	0xbe6f4a02	-0.23368075
166	0xbea6fe6a	-0.32615978
167	0x3e4c7998	0.1996826
168	0x3e639b02	0.222271
169	0xbdb9eff6	-0.09078972
170	0xbd865efa	-0.06561084
171	0x3d719596	0.058980547
172	0xbda214cc	-0.07914123
173	0x3eadcc43	0.33944902
174	0x3ef8c2e4	0.4858619
175	0x3e6aba16	0.22922549
176	0xbc83592d	-0.016033733
177	0x3e63f1a6	0.2226015
178	0x3e825a35	0.25459448
179	0xbd8a8af2	-0.06764783
180	0x3d98ae58	0.074551284
181	0x3e09b27f	0.13446997
182	0xbf2b5e69	-0.66940933
183	0xbf93fd0e	-1.1561601
184	0xbf06cf26	-0.52659833
185	0x3b9311b8	0.004488196
186	0xbdb0d4f2	-0.08634366
187	0xbe87eccf	-0.26547858
188	0x3e1fd3b8	0.15608108
189	0x3b1c84a6	0.0023882776
190	0xbc95e39b	-0.018297007
191	0x3f296919	0.6617599
192	0x3f94d32f	1.1626948
193	0x3fa4ab66	1.2864807
194	0x3f39c130	0.72560406
195	0xbe170f8c	-0.14752024
196	0xbd58888e	-0.052864604
197	0xbc4d2247	-0.012520379
198	0xbb92326b	-0.0044615767
199	0xbedd6756	-0.43242902
200	0xbe9d310a	-0.30701476
201	0x3dd2da4c	0.10295543
202	0xbbffde86	-0.0078085093
203	0xbe3175db	-0.17330115
204	0xbc8bb7a9	-0.01705535
205	0xbe948b25	-0.2901241
206	0x3d9b56a3	0.07584884
207	0x3e40a644	0.18813425
208	0x3ec29de5	0.3801109
209	0x3e00f46f	0.12593244
210	0xbeafa572	-0.34305912
211	0xbe812e5d	-0.25230685
212	0x3daa53b6	0.08316748
213	0xbc358cfb	-0.011080976
214	0x3ddf7fcf	0.109130494
215	0x3e4f66cc	0.20254058
216	0x3e7617ee	0.24032566
217	0xbe31b953	-0.17355852
218	0x3d3c8915	0.04602917
219	0x3e8239a7	0.2543461
220	0x3ea750a6	0.32678717
221	0xbd16ddba	-0.03683255
222	0x3df4a838	0.11946148
223	0x3e996f86	0.29967898
224	0xbe0295d6	-0.1275247
225	0xbdf2ce6c	-0.11855778
226	0x3e7496ea	0.23885694
227	0x3dcb2f3a	0.09921117
228	0x3dddb6ce	0.10825883
229	0xbe679ef6	-0.22619233
230	0xbf162d82	-0.5866319
231	0x3df062f3	0.11737623
232	0xbe4b7758	-0.19869745
233	0xbd55b85c	-0.052177772
234	0xbd84db11	-0.06487096
235	0xbcd5a77b	-0.026080837
236	0x3d8a2482	0.067452446
237	0xbddff839	-0.109360166
238	0x3deb4bf3	0.114890955
239	0x3e90f576	0.28312272
240	0xbc579c34	-0.0131598
241	0xbd8b59dc	-0.06804249
242	0xbcf6f0de	-0.030144151
243	0xbd07f32a	-0.033190884
244	0xbd76f8eb	-0.06029598
245	0x3c7ab4ee	0.015301926
246	0xbd9d0228	-0.07666427
247	0xbe771651	-0.24129607
248	0x3d55c944	0.052193895
249	0xbdf07bef	-0.117423885
250	0xba89dfd5	-0.0010518978
251	0xbd6880ab	-0.056763332
252	0xbd90d9ce	-0.07072793
253	0x3d8e418e	0.06946097
254	0xbdbd79d0	-0.092517495
255	0x3d8e31c6	0.06943087

in1.bias f4 [8]
0	0x3dfb6d1e	0.12276672
1	0x3e835f3c	0.25658596
2	0x3e9214a1	0.28531364
3	0xbe88f7d0	-0.26751566
4	0x3dde524b	0.1085554
5	0x3efcfcdc	0.49411666
6	0x3e3663fc	0.17811579
7	0x3ed42c41	0.41440013

in1.weight f4 [8]
0	0x3e1537d6	0.14572081
1	0x3d3ae38c	0.04562716
2	0x3dfcf9c8	0.123523295
3	0x3c1128aa	0.008859793
4	0x3d8524da	0.065011695
5	0x3daa7ce3	0.083246015
6	0x3d83277c	0.064040154
7	0x3d89b1d8	0.06723374

in2.bias f4 [16]
0	0xbd9257f1	-0.0714568
1	0x3dda1aa0	0.106496096
2	0x3ee2734d	0.44228593
3	0xbd3f7306	-0.046740554
4	0xbd887f67	-0.06664925
5	0x3f109f9f	0.5649356
6	0x3f88adc7	1.0678033
7	0xbe324790	-0.17410111
8	0xbdea5cc9	-0.114434786
9	0x3d73ab80	0.059489727
10	0xbee616f6	-0.44939393
11	0xbd5c60f2	-0.05380339
12	0x3c8a643b	0.016893497
13	0xbd15bf8c	-0.036559626
14	0x3f9337b9	1.150138
15	0x3ed6830d	0.4189686

in2.weight f4 [16]
0	0x3f174d16	0.59102
1	0x3e2425c8	0.16030037
2	0x3e6ad761	0.22933723
3	0x3e9249ad	0.28571835
4	0x3e485608	0.19564068
5	0x3e3175e5	0.1733013
6	0x3e192149	0.14954104
7	0x3e8f629b	0.28004918
8	0x3dc6b0cc	0.0970169
9	0x3f2c9194	0.67409635
10	0x3e7e38ff	0.2482643
11	0x3e7a8bcc	0.24467391
12	0x3e017c96	0.12645182
13	0x3e9249ba	0.28571874
14	0x3e2ff0fb	0.1718177
15	0x3e453922	0.19260076

in3.bias f4 [32]
0	0x3dd060e7	0.10174733
1	0x3d044bb6	0.032298766
2	0xbe4c4d1e	-0.19951293
3	0x3dd99251	0.10623611
4	0xbd62d7bd	-0.055381525
5	0x3de73b92	0.11290659
6	0xbcec0eeb	-0.028815707
7	0x3cce3619	0.02517228
8	0x3c939da6	0.018019509
9	0x3d21aa11	0.03946883
10	0xbe40bf66	-0.18823013
11	0x3db44e15	0.088039555
12	0xbbb17f26	-0.0054167686
13	0x3cfe9579	0.031077133
14	0xbfb2b4dc	-1.3961444
15	0xbd6867a1	-0.056739453
16	0xbd852383	-0.06500914
17	0x3e9f522b	0.31117377
18	0xbdd923c3	-0.10602524
19	0xbb438c6c	-0.0029838337
20	0x3cd55e01	0.026045801
21	0x3d8aef62	0.0678394
22	0xbd2e16a4	-0.04250206
23	0x3d2f7b41	0.042842153
24	0xbe2c0163	-0.16797404
25	0x3c9a47a4	0.018832989
26	0xbcc77dd2	-0.024351988
27	0xbdb086b3	-0.08619442
28	0x3b2cc8bf	0.0026364771
29	0xbf1dab46	-0.6158947
30	0x3ddf0c73	0.108910464
31	0x3d908847	0.07057243

in3.weight f4 [32]
0	0x3d010e0d	0.03150754
1	0x3d00cce9	0.031445418
2	0x3e9647b8	0.29351592
3	0x3ceabd88	0.028654829
4	0x3d85691c	0.06514189
5	0x3d34c3d9	0.044132087
6	0x3e501db1	0.20323826
7	0x3d1922e9	0.03738681
8	0x3d4fd2af	0.050738033
9	0x3d55dd4c	0.052213
10	0x3e6bb5cd	0.2301857
11	0x3d4c2434	0.049839213
12	0x3db26c11	0.08712018
13	0x3d907c47	0.07054954
14	0x3f265b18	0.6498275
15	0x3dc10a57	0.094258
16	0x3de54294	0.111943394
17	0x3d55519f	0.052079793
18	0x3dee793b	0.116442166
19	0x3d9aabb4	0.07552281
20	0x3d5759c2	0.052575834
21	0x3d28d829	0.04122177
22	0x3d9b7199	0.075900264
23	0x3cf9eb63	0.030507749
24	0x3e5e8c26	0.2173315
25	0x3d406d2f	0.046979126
26	0x3db24d1c	0.08706114
27	0x3e505b1b	0.20347254
28	0x3d447da6	0.04797139
29	0x3ea1a62e	0.31572098
30	0x3d1aaea5	0.03776421
31	0x3d1e3330	0.038623035

in4.bias f4 [16]
0	0xbef2b572	-0.47404057
1	0x3fa403b8	1.2813635
2	0x3f89b02e	1.0756891
3	0xbf01b71f	-0.50670046
4	0xbed26748	-0.41094422
5	0x3f60567a	0.8763195
6	0xbf09b9ac	-0.5379894
7	0x3f6004b7	0.87507194
8	0xbe38cb9d	-0.18046422
9	0xbea2d51a	-0.3180321
10	0xbf514703	-0.8174898
11	0xbd1e23b5	-0.03860827
12	0x3fb68d0d	1.4261795
13	0xbf1b4bb0	-0.60662365
14	0x3e4ac6a0	0.19802332
15	0x3be46df4	0.0069711152

in4.weight f4 [16]
0	0x3ffea23c	1.989326
1	0x3f80eb72	1.0071852
2	0x3f599a31	0.850009
3	0x3fac4431	1.345831
4	0x3fb73358	1.4312544
5	0x3f831024	1.0239301
6	0x3fb01224	1.3755536
7	0x3fa7f2dd	1.3120991
8	0x3fb1a9a2	1.3879893
9	0x3fd70f59	1.6801559
10	0x3fd48e8d	1.6606003
11	0x3f96b37f	1.1773528
12	0x3f603f07	0.8759617
13	0x3fd12cff	1.6341857
14	0x3f51ea17	0.8199782
15	0x3fb82e88	1.43892

in5.bias f4 [8]
0	0x3f512fda	0.8171364
1	0x3fab334d	1.3375031
2	0x3eddd2ee	0.4332499
3	0x3e143cc6	0.14476308
4	0x3f88bf18	1.0683317
5	0x4009cdd8	2.1531887
6	0x3f9e4de1	1.2367517
7	0x3fac9f9e	1.3486211

in5.weight f4 [8]
0	0x4028d060	2.6377182
1	0x3fc63669	1.5485355
2	0x40292e5f	2.6434553
3	0x4054bfe5	3.3242123
4	0x3ff2230d	1.8916947
5	0x3fc3680a	1.5266125
6	0x3feaa72c	1.8332267
7	0x402368d0	2.5532722

resnets.0.conv1.conv2d.bias f4 [32]
0	0x3e966111	0.2937093
1	0xbe5b58c3	-0.21420579
2	0xbde87eb7	-0.11352294
3	0x3db996ef	0.090619914
4	0xbe37933e	-0.17927262
5	0x3e20124a	0.15631977
6	0xbf60b585	-0.87776977
7	0x3e0e27ed	0.13882418
8	0xbee35fb1	-0.44408944
9	0x3e6bc107	0.23022853
10	0xbd48d464	-0.049030676
11	0x3f01a794	0.5064633
12	0x3d1025cc	0.035192296
13	0xbe09ffd7	-0.13476501
14	0xbfa7c6dc	-1.3107562
15	0xbeb18197	-0.34669182
16	0x3e1f3393	0.15547018
17	0x3e44c226	0.19214687
18	0xbf0a8f9e	-0.5412539
19	0x3dd2aa08	0.10286337
20	0x3e116ef2	0.14202479
21	0x3e6bd851	0.23031737
22	0x3ef00683	0.46879968
23	0xbc9156c3	-0.017741567
24	0x3d5ef956	0.054437004
25	0x3f004c08	0.50116014
26	0x3ec0274c	0.3752998
27	0x3cb86302	0.022508148
28	0xbe8c8b20	-0.27449894
29	0xbede7e4b	-0.4345573
30	0x3ee5e9c4	0.44904912
31	0x3dc06c36	0.093956396
